Model/decoder_weights.pth (torch, 262880 bytes, 8 tensors)

latent_to_hidden.weight f4 [128, 64]
0	0x3d497f09	0.049193416
1	0x3dbaeac0	0.09126806
2	0xbdb0ccb4	-0.08632794
3	0x3d215d98	0.0393959
4	0xbe1f090c	-0.15530795
5	0xbdd7479d	-0.10511706
6	0x3e3d6140	0.18494129
7	0xbbdfb1e0	-0.0068266243
8	0x3e833ecd	0.2563385
9	0x3d652a26	0.0559484
10	0x3dcd61c2	0.100284114
11	0x3e1083a3	0.14112715
12	0xbc0e305c	-0.008678522
13	0x3cc00521	0.023439946
14	0xbda6b115	-0.081392445
15	0xbe582632	-0.2110832
16	0xbdbe1592	-0.09281458
17	0x3ddf3c7f	0.109002106
18	0x3e057627	0.13033353
19	0x3deee5c7	0.1166492
20	0x3e2b59ff	0.1673355
21	0x3c223071	0.009899245
22	0xbe20dfa8	-0.15710318
23	0x3ea031c3	0.31287965
24	0xbb0ff128	-0.0021963809
25	0xbd746436	-0.05966588
26	0xbdfdaf56	-0.12386958
27	0x3e6f48a6	0.23367557
28	0x3e3a9667	0.18221436
29	0xbd9ffc13	-0.07811751
30	0xbe38ee18	-0.18059576
31	0xbd8176c4	-0.06321481
32	0xbd3ce54f	-0.046117123
33	0xbd0e0359	-0.03467116
34	0x3dcbafd7	0.09945648
35	0xbd90b4b1	-0.07065714
36	0x3de5153e	0.11185692
37	0x3e204606	0.15651712
38	0x3da94996	0.082659885
39	0xbe3f2a0b	-0.18668382
40	0x3dd097f0	0.1018523
41	0xbdf721ed	-0.12067018
42	0x3dc44b77	0.09584706
43	0x3d969d94	0.073542744
44	0x3d137a5f	0.036005374
45	0xbe3ebb53	-0.18626146
46	0x3e3e9772	0.1861246
47	0xbbfd582a	-0.0077314572
48	0x3e2457bd	0.16049094
49	0x3d6658e6	0.056237124
50	0x3ded3f59	0.11584348
51	0x3ea35293	0.31898937
52	0x3d2f7b3b	0.04284213
53	0xbcdf2cd5	-0.027243057
54	0x3dd449e6	0.103656575
55	0xbd48d65f	-0.049032565
56	0x3dbf7f42	0.093504444
57	0xbbe5695a	-0.0070010843
58	0xbe5d939e	-0.21638343
59	0x3e115cf0	0.14195609
60	0x3e362e90	0.177912
61	0x3d99d5c3	0.07511475
62	0x3cdfaa29	0.027302818
63	0x3d97da4b	0.07414683
64	0xbcb09206	-0.021554004
65	0xbde814c5	-0.113320865
66	0xbda7787c	-0.081772774
67	0x3e665392	0.22492817
68	0xbde29e2a	-0.11065324
69	0x3c9075e2	0.017634336
70	0x3e24b69b	0.16085283
71	0x3dedef22	0.116178766
72	0x3e0a6fd6	0.13519225
73	0x3d3f07e8	0.0466384
74	0xbd2d381a	-0.04228983
75	0xbeac725d	-0.33681002
76	0xbdd15fa2	-0.10223319
77	0x3dc9cecd	0.09853897
78	0x3cac2e2e	0.021018114
79	0xbdf7940c	-0.120887846
80	0x3e33668d	0.17519589
81	0xbe9a391c	-0.30121696
82	0x3ea77832	0.3270889
83	0x3e785eac	0.24254864
84	0x3da1c860	0.078995466
85	0x3e5e61ed	0.21717043
86	0xbd002337	-0.031283583
87	0x3ef4c0ca	0.47803336
88	0x3eb53070	0.35388517
89	0xbe900e38	-0.28135848
90	0x3d289d55	0.04116567
91	0x3e71497a	0.23563185
92	0xbdbeff3b	-0.09326025
93	0xbe8c203e	-0.2736835
94	0x3e2eda0f	0.1707537
95	0xbe10ba73	-0.14133625
96	0xbeb54090	-0.3540082
97	0x3e508d52	0.2036641
98	0x3e62990e	0.22128698
99	0xbdd0e4ac	-0.10199866
100	0x3e8b99a2	0.2726565
101	0xbebd7d9e	-0.370099
102	0x3e6183ba	0.22022906
103	0xbeda9506	-0.4269182
104	0x3dba74ce	0.0910431
105	0xbdf2ed59	-0.11861677
106	0xbe5562d4	-0.20838481
107	0x3e87fe8d	0.26561394
108	0xbd3bcb04	-0.045847908
109	0xbec61f06	-0.38695544
110	0xbee65d0e	-0.4499287
111	0xbe37177d	-0.17880054
112	0x3e3b0280	0.18262672
113	0xbcc674ab	-0.024225553
114	0xbe22811d	-0.15869565
115	0x3e083f23	0.13305335
116	0x3dd66f8b	0.10470494
117	0x3e7d46ca	0.24734035
118	0x3e536b26	0.20646343
119	0x3e59fc9d	0.2128777
120	0x3cecf1de	0.028923925
121	0x3da07a13	0.07835784
122	0xbe94a46a	-0.29031688
123	0xbe928838	-0.28619552
124	0x3dd7b8b3	0.105332755
125	0xbe90be29	-0.2827008
126	0x3ef958fc	0.48700702
127	0x3ee4a050	0.4465356
128	0x3cee2862	0.02907199
129	0x3d848029	0.06469757
130	0x3db4d0e0	0.08828902
131	0x3e0cb2dc	0.13740104
132	0x3d000920	0.031258702
133	0xbe2920c1	-0.16516401
134	0xbcc96b2f	-0.024587242
135	0xbe0556ad	-0.13021345
136	0x3d8b0682	0.06788351
137	0xbd2ed9e0	-0.04268825
138	0xbdbaba8c	-0.09117612
139	0xbe2273c2	-0.1586447
140	0x3e2a1291	0.16608645
141	0x3d2a84d9	0.0416306
142	0xbe429a65	-0.1900421
143	0xbbd5b193	-0.0065214126
144	0xbce9f24d	-0.02855792
145	0xbdbfc45b	-0.09363624
146	0x3def7ad0	0.116933465
147	0x3d974ca6	0.073876664
148	0x3e0b29f1	0.13590218
149	0x3cc14bda	0.02359574
150	0xbd9db97d	-0.07701395
151	0x3e2af99c	0.16696781
152	0x3e0666a3	0.1312509
153	0x3a8cc61b	0.0010740192
154	0x3e109c64	0.14122158
155	0x3e802e29	0.25035217
156	0x3d56832b	0.052371185
157	0xbe411e2b	-0.18859164
158	0xbe24cbc9	-0.16093363
159	0x3e2ee795	0.17080529
160	0x3e2cd7be	0.16879174
161	0xbd39c02d	-0.04534929
162	0x3cb5cd76	0.022192698
163	0xbd5b9241	-0.053606275
164	0xbe010d3d	-0.12602706
165	0x3cb8d26c	0.022561274
166	0x3e1c8f7b	0.15289108
167	0xbd7e6bad	-0.062114406
168	0xbcc0d7dd	-0.023540432
169	0xbd3abaac	-0.04558818
170	0xbd51e8df	-0.051247474
171	0x3dac7023	0.08419826
172	0x3d3b5c6c	0.045742437
173	0xbcd84369	-0.026399331
174	0x3d00c9c9	0.031442437
175	0x3d99489b	0.074845515
176	0x3e0c58c7	0.13705741
177	0xbcb0eee3	-0.021598285
178	0xbdfb226e	-0.12262426
179	0x3de1861a	0.11011906
180	0x3dff6ae9	0.12471563
181	0xbe1e2d87	-0.15447055
182	0x3e16a970	0.14713073
183	0xbe275680	-0.16341591
184	0xbd4639fd	-0.048395146
185	0x3daec3e8	0.0853346
186	0xbeaa1045	-0.33215538
187	0x3bee49c6	0.007271978
188	0x3d4a5a51	0.04940254
189	0x3d359a9c	0.0443369
190	0x3e15b6e3	0.14620547
191	0xbcdb0d40	-0.026739717
192	0x3d8e5b29	0.06950981
193	0x3d1093f6	0.035297357
194	0x3eb40af1	0.35164598
195	0xbe890843	-0.26764116
196	0xbdbc1e24	-0.09185436
197	0xbd90a707	-0.07063108
198	0xbd463407	-0.04838946
199	0xbebaa460	-0.36453533
200	0xbe95df83	-0.29272088
201	0xbe6a21a0	-0.2286439
202	0x3e7c6fb9	0.24651994
203	0x3dc8f859	0.098129936
204	0x3eccc9a9	0.39997604
205	0xbe69e7d8	-0.22842348
206	0x3e4abcc2	0.19798568
207	0x3e7f80ce	0.24951479
208	0x3d3e3847	0.04644039
209	0x3e2b26e1	0.1671405
210	0x3d274be2	0.040843852
211	0xbe2ef851	-0.17086913
212	0xbdfb07fa	-0.12257381
213	0xbabf5fa1	-0.0014600643
214	0x3e96fcac	0.29489648
215	0xbe7ccd56	-0.24687704
216	0x3d902c9e	0.0703976
217	0x3eb9fb78	0.36324668
218	0xbe10f033	-0.14154129
219	0xbd54eda4	-0.051984444
220	0x3e190415	0.14942963
221	0x3e9cd12c	0.30628335
222	0x3e4d178f	0.20028518
223	0x3ecba825	0.39776722
224	0x3eed7eae	0.4638571
225	0xbe2d441a	-0.1692051
226	0xbe71a705	-0.23598869
227	0xbe53557c	-0.20638078
228	0xbeda4ae7	-0.4263527
229	0x3e8f2eec	0.27965486
230	0xbe8900ec	-0.26758516
231	0x3e872970	0.26398802
232	0xbe9c8cb5	-0.305761
233	0x3e23588f	0.15951751
234	0x3ec6237b	0.38698944
235	0xbd867885	-0.06565956
236	0xbe3dd2ff	-0.1853752
237	0x3e56d16a	0.20978323
238	0x3e155be0	0.14585829
239	0x3ebad4ac	0.3649038
240	0xbe37e819	-0.17959632
241	0xbd930695	-0.0717899
242	0xbc37a12d	-0.011207861
243	0xbe35c590	-0.17751145
244	0xbe328268	-0.17432559
245	0xbe30e5ff	-0.17275237
246	0xbe754530	-0.23952174
247	0xbea7d9b0	-0.3278327
248	0xbe633cb1	-0.2219112
249	0x3d741a5f	0.059595462
250	0xbcd64357	-0.026155157
251	0xbd10725f	-0.035265323
252	0x3e46e59c	0.19423527
253	0xbd172115	-0.036896784
254	0xbeaedc38	-0.3415239
255	0xbe57d201	-0.21076204

latent_to_hidden.bias f4 [128]
0	0xbf18c51e	-0.59675777
1	0x3f10e2b9	0.5659595
2	0xbf0f1f6e	-0.5590733
3	0xbed5d967	-0.41767427
4	0x3ea8baeb	0.32955107
5	0xbf02bd97	-0.5107054
6	0x3f0cc45e	0.5498713
7	0xbec6e78e	-0.38848537
8	0xbebc086d	-0.36725178
9	0xbf2e7530	-0.68147564
10	0xbf0fb99e	-0.56142604
11	0x3f1e21f3	0.6177055
12	0xbf27c1af	-0.6552991
13	0xbef5d28f	-0.48012206
14	0x3e8bfd54	0.27341712
15	0xbf13d828	-0.57751703
16	0x3ed4ff90	0.4160123
17	0xbf4828f9	-0.7818752
18	0xbeef6f44	-0.46764576
19	0x3f01969a	0.50620425
20	0x3ec8931a	0.3917473
21	0x3f1335dd	0.57504064
22	0xbefdd3d2	-0.4957567
23	0x3f0e8b6f	0.5568151
24	0xbed9eb34	-0.42562258
25	0xbf0f42ab	-0.559611
26	0x3f198615	0.5997022
27	0xbee4418b	-0.44581255
28	0x3f1abbf2	0.6044303
29	0x3f0266f6	0.50938356
30	0x3f063f26	0.52440107
31	0x3f0c3032	0.5476104
32	0xbf2b5cca	-0.6693846
33	0xbefedcad	-0.49777737
34	0xbf02db64	-0.51116014
35	0x3f206dde	0.62667644
36	0x3ee3af68	0.44469762
37	0x3f11f968	0.5702119
38	0xbf44bebc	-0.7685354
39	0x3f2423b7	0.64116997
40	0x3f1aa9d6	0.604154
41	0xbf42fa99	-0.7616363
42	0x3f120335	0.57036144
43	0xbec415af	-0.38297793
44	0xbed1b1e9	-0.40956047
45	0xbede549a	-0.4342392
46	0xbee26b06	-0.44222277
47	0x3f032a40	0.51236343
48	0x3ed18731	0.40923455
49	0x3ec882bf	0.3916225
50	0x3ec7bfca	0.3901351
51	0xbf4da961	-0.80336577
52	0x3eec5e64	0.46165764
53	0xbea99cc3	-0.33127412
54	0x3f1af7e1	0.60534483
55	0xbeff9402	-0.49917608
56	0x3f0873d9	0.5330177
57	0x3f015118	0.50514364
58	0xbf1306b9	-0.5743213
59	0x3e05d553	0.13069658
60	0x3eb73348	0.35781312
61	0x3f3ecb23	0.7452871
62	0x3f186bad	0.595393
63	0x3f343d10	0.70405674
64	0xbef8e5ef	-0.48612925
65	0x3ecf61a6	0.40504187
66	0xbf3807ac	-0.71886706
67	0x3f226d09	0.63447624
68	0x3effaca6	0.49936408
69	0xbea9d93e	-0.33173555
70	0x3ec181d5	0.37794366
71	0xbefef5c2	-0.49796873
72	0x3f0be084	0.5463946
73	0xbf1765bc	-0.5913961
74	0x3eb23a80	0.34810257
75	0xbf186f92	-0.5954524
76	0xbf369f90	-0.71337223
77	0xbef16793	-0.47149333
78	0x3f4421ba	0.7661396
79	0xbf08a3db	-0.53375024
80	0xbf1f816a	-0.62306845
81	0x3ee98b11	0.45613912
82	0xbf2f6114	-0.68507504
83	0xbebe1535	-0.37125555
84	0xbeb8341c	-0.35977256
85	0x3ee7d3b4	0.45278704
86	0xbf0984c1	-0.5371819
87	0x3f016a48	0.505528
88	0x3ef1d14a	0.47229987
89	0x3f3e9e73	0.74460524
90	0xbf19ef58	-0.60130835
91	0x3eaea722	0.34111887
92	0xbec7a425	-0.3899242
93	0x3f29dfb7	0.66356987
94	0xbf3b84c8	-0.73249483
95	0xbf0c3a8d	-0.5477684
96	0x3ed94d37	0.42441723
97	0xbf250bc6	-0.6447109
98	0x3ef9cd43	0.48789415
99	0x3f2426ae	0.6412152
100	0xbebf47d0	-0.37359476
101	0xbf0ef34e	-0.55840003
102	0xbefcd91a	-0.49384385
103	0xbf1f239e	-0.6216372
104	0x3efe9b5d	0.49727908
105	0xbf28d900	-0.65956116
106	0xbec78d77	-0.38975117
107	0x3f1e729a	0.6189362
108	0x3ebd5828	0.3698132
109	0x3f0c1afb	0.5472867
110	0x3eb66611	0.35624745
111	0xbf1c7861	-0.61121184
112	0xbf39739d	-0.72442037
113	0xbef707af	-0.4824805
114	0x3f131da0	0.5746708
115	0xbf24cc3a	-0.64374125
116	0xbf31a7c7	-0.6939663
117	0xbf0125b4	-0.50448155
118	0xbedd9eeb	-0.43285307
119	0x3ed4684c	0.41485822
120	0xbed0586a	-0.40692455
121	0xbf06e12b	-0.5268733
122	0xbf1657c7	-0.5872769
123	0xbeb921e8	-0.3615868
124	0xbe9cfed8	-0.3066318
125	0x3f0fc737	0.5616335
126	0xbee2bb5a	-0.44283563
127	0xbea1acd0	-0.31577158

gru.weight_ih_l0 f4 [384, 13]
0	0xbda888b7	-0.08229201
1	0x3db490af	0.08816659
2	0x3d65523e	0.055986635
3	0xbc2c5a88	-0.010519631
4	0x3d7a2c6e	0.061077528
5	0xbd8ba9d5	-0.06819502
6	0xbdae8d8a	-0.0852309
7	0xbc1cb2c0	-0.009564102
8	0xbdb281f2	-0.08716191
9	0x3d091b86	0.033473514
10	0xbd2614d9	-0.040547226
11	0x3c61e2c8	0.013786979
12	0xbd4e50e6	-0.05037012
13	0x3b2f8240	0.0026780516
14	0x3d770c42	0.060314424
15	0xbd8c1947	-0.06840759
16	0xbd379ea8	-0.04482904
17	0xbda1be35	-0.07897607
18	0xbcb4c41c	-0.022066168
19	0x3da2ed7f	0.07955455
20	0x3cacf3cc	0.021112345
21	0xbd6dd110	-0.058060706
22	0xbd7e253a	-0.06204722
23	0xbc898ce0	-0.016790807
24	0x3d06a322	0.03287042
25	0xbdb358d7	-0.08757179
26	0xbd3aac0b	-0.04557423
27	0x3d97075d	0.07374451
28	0x3c5beb30	0.013422772
29	0xbb2b2260	-0.0026113018
30	0xbd1c94c7	-0.038227823
31	0xbc71c1d8	-0.014755689
32	0x3cbf2d98	0.02333717
33	0x3d8a6df5	0.06759254
34	0xbd00339f	-0.03129923
35	0x3d2e9ed2	0.04263193
36	0xbad77580	-0.0016438216
37	0xbcc9a250	-0.02461353
38	0x3d25921e	0.04042255
39	0x3d386e66	0.04502716
40	0xbd850b3d	-0.06496284
41	0xbcd9ae18	-0.026572272
42	0xbd946e02	-0.07247545
43	0xbc1f2ab8	-0.009714775
44	0x3d26df22	0.04074014
45	0x3c9395bc	0.018015735
46	0xbb13b160	-0.0022536144
47	0xbb6745c0	-0.0035289377
48	0x3d48cb7a	0.049022175
49	0x3d124f1a	0.03571997
50	0xbd90ecf4	-0.07076445
51	0x3d15bd06	0.03655722
52	0x3d03d304	0.032183662
53	0x3db37c7f	0.0876398
54	0xbcd2ed30	-0.025747865
55	0x3d5daf06	0.054121993
56	0xbc75edd0	-0.015010312
57	0xbc9259dc	-0.017865114
58	0xbd086a1d	-0.033304323
59	0xba040400	-0.00050359964
60	0x3cc800bc	0.024414413
61	0x3d473446	0.048633836
62	0xbc766218	-0.015038036
63	0x3d54b096	0.051926218
64	0x3c0e5c60	0.008689016
65	0xbd974670	-0.07386482
66	0xbd245297	-0.040117826
67	0xbd3592db	-0.044329505
68	0x3cf99cac	0.030470215
69	0x3d8e7d3d	0.06957481
70	0xbc113158	-0.008861862
71	0x3da52177	0.080630235
72	0xbce1669c	-0.027514748
73	0xbd2c2b07	-0.04203322
74	0x3da36707	0.07978635
75	0xbdac1dfd	-0.08404157
76	0xbd2252c9	-0.03962973
77	0xbd0f4e12	-0.034986563
78	0xbcc8c50c	-0.024508022
79	0x3db47c51	0.08812774
80	0xbc9780ec	-0.018494092
81	0xbba87850	-0.0051412955
82	0xbcef4044	-0.029205449
83	0xbd32eaa2	-0.043680795
84	0x3d14b5bc	0.036306128
85	0xbc8fc7f4	-0.0175514
86	0xbc565b48	-0.013083287
87	0x3d2ad62a	0.04170815
88	0xbd98638e	-0.074408635
89	0x3d1171b4	0.035508826
90	0x3d65ed6a	0.05613462
91	0xbd53bdca	-0.05169467
92	0xbd53f8be	-0.05175089
93	0xbd71a3b0	-0.058993995
94	0xbca3becc	-0.01998844
95	0x3d9e0197	0.07715147
96	0xbdac8b80	-0.08425045
97	0x3d88b601	0.066753395
98	0xbd9a0c17	-0.07521837
99	0xbda0e7f0	-0.078567386
100	0x3d20b4ea	0.039235033
101	0xbd45da01	-0.048303608
102	0xbd2ad8a7	-0.041710522
103	0xbd4b5e0a	-0.04965023
104	0x3d87d549	0.06632478
105	0xbccf1e5c	-0.025283031
106	0xbd910e3b	-0.07082792
107	0xbc7b70f0	-0.015346751
108	0xb985ba00	-0.00025506318
109	0x3badb570	0.00530117
110	0xbcb57a10	-0.02215293
111	0xbd4c1f5e	-0.0498346
112	0x3cad5670	0.02115938
113	0x3cd67710	0.02617982
114	0xbd24cf23	-0.040236603
115	0x3d5f8692	0.054571696
116	0xbc15f580	-0.00915277
117	0x3d6dc7be	0.058051817
118	0xbd0c21dc	-0.03421198
119	0x3c4db078	0.01255428
120	0xbd3d1c05	-0.0461693
121	0x3daf8565	0.08570365
122	0x3d3b46be	0.045721762
123	0xbdb32acd	-0.08748398
124	0xbd8ff4b6	-0.07029097
125	0x3d526ac2	0.051371343
126	0x3d965efb	0.07342335
127	0x3d1e3e8e	0.038633876
128	0x3d9bcfab	0.07607969
129	0x3d925113	0.0714437
130	0x3c0d5688	0.008626588
131	0xbda6281d	-0.0811312
132	0x3c377770	0.01119791
133	0xbcf85688	-0.030314699
134	0xbcfc4728	-0.030795649
135	0x3d826c67	0.06368332
136	0x3cdd5610	0.027018577
137	0xbd0fcf37	-0.035109725
138	0xbd9a912e	-0.07547222
139	0xbd95a06d	-0.073059894
140	0xbbcbfac0	-0.00622496
141	0x3d5472a2	0.051867135
142	0x3d4c9762	0.049949057
143	0x3d1f60fe	0.03891086
144	0x3d50e44e	0.05099898
145	0xbcf89adc	-0.03034728
146	0x3da08b93	0.07839122
147	0x3d01bb26	0.03167262
148	0xbd92029d	-0.07129405
149	0x3d047bfa	0.032344796
150	0xbd38795a	-0.045037605
151	0xbb9864b0	-0.0046506748
152	0xbd9e622c	-0.077335685
153	0x3c393e40	0.011306345
154	0x3c7dd1e8	0.01549194
155	0xbccceaa8	-0.025014237
156	0x3daf671b	0.08564588
157	0xbb3b3460	-0.0028565153
158	0x3d5600ca	0.052246846
159	0x3d17fdda	0.037107326
160	0xbd809999	-0.062792964
161	0xbd523114	-0.051316336
162	0xbcb39858	-0.02192323
163	0x3c85d8f0	0.016338795
164	0xbc563ba8	-0.013075747
165	0xbd7a1b18	-0.061060995
166	0x3da4d5f7	0.08048623
167	0x3d7f243a	0.062290408
168	0xbd75e236	-0.060030185
169	0x3d316532	0.043309398
170	0xbd625deb	-0.05526535
171	0xbc4c8750	-0.012483433
172	0xbd3f6609	-0.046728168
173	0x3d676f4e	0.056502633
174	0x3da42185	0.08014206
175	0xbd8e1886	-0.06938271
176	0x3d987a9b	0.0744526
177	0x3d56abc6	0.05240991
178	0x3c519980	0.012792945
179	0xbdb0d58a	-0.08634479
180	0x3a9ee6c0	0.0012123212
181	0x3d01a51c	0.0316516
182	0x3c4e25c0	0.0125822425
183	0x3da8bd87	0.082392745
184	0xbd9e4f77	-0.077300005
185	0xbd4ae838	-0.049537867
186	0xbd2536e8	-0.040335566
187	0xbd43d4a2	-0.047810204
188	0xbc0da7c8	-0.008645959
189	0x3c8105d8	0.015749857
190	0x3db0390f	0.08604633
191	0xbd9e31ac	-0.07724318
192	0x3da418c7	0.080125384
193	0x3ca46b90	0.020070821
194	0x3c369038	0.011142783
195	0xbd8dcd5a	-0.06923933
196	0x3c7638b0	0.015028164
197	0x3c1dc3c8	0.009629197
198	0xbda71ddb	-0.08159991
199	0xbd5a890a	-0.053353347
200	0xbda86c18	-0.08223742
201	0xbb93bfe0	-0.0045089573
202	0x3b28c8a0	0.0025754347
203	0xbcb19368	-0.021676734
204	0x3d1e7072	0.038681455
205	0xbd25c7a7	-0.040473606
206	0x3ca6d278	0.020364031
207	0x3d2b3be2	0.041805156
208	0x3d0c549a	0.03426037
209	0x3d97e01d	0.07415793
210	0xbd3fc9fb	-0.046823483
211	0x3cd75ba8	0.026288822
212	0x3c3e45e0	0.011613339
213	0xbca1d07c	-0.019752733
214	0x3db16d59	0.086634345
215	0xbb26f6a0	-0.002547659
216	0x3d95fa47	0.07323127
217	0x3cf324c0	0.02968061
218	0xbd0e3a93	-0.03472383
219	0x3d67902a	0.05653397
220	0x3da8f97b	0.082507096
221	0xbce5d968	-0.028057769
222	0xbd1eace0	-0.038739085
223	0x3d703022	0.058639653
224	0x3d15faba	0.036616065
225	0xbcb223f0	-0.021745652
226	0xba1e6800	-0.0006042719
227	0x3d19788e	0.037468486
228	0x3d84ccd7	0.064843826
229	0xbca9b718	-0.020717189
230	0x3c005798	0.007833384
231	0xbd66c9dd	-0.056344856
232	0x3ccd1ddc	0.025038652
233	0xbd9ee9e4	-0.07759455
234	0xbdb2528c	-0.08707151
235	0xbc2d1b38	-0.0105655715
236	0x3c30b1a0	0.010784537
237	0xbcda9918	-0.026684329
238	0xbce64006	-0.0281067
239	0x3d906567	0.07050591
240	0xbd3a4397	-0.045474615
241	0xbd10bc21	-0.035335664
242	0xbd1e22d3	-0.03860743
243	0xbce0bab8	-0.027432784
244	0x3d9c4fbb	0.07632395
245	0x3d53a2a6	0.051668786
246	0xbd8fcb37	-0.07021182
247	0xbc670d88	-0.014102347
248	0xbc84d884	-0.016216524
249	0x3d83d4db	0.06437083
250	0x3c7d8aa0	0.015474945
251	0xbdae09b1	-0.08497942
252	0x3ca3be38	0.019988164
253	0xbcf26e1e	-0.029593524
254	0x3d9bc5c1	0.07606078
255	0xbd76fef8	-0.06030175

gru.weight_hh_l0 f4 [384, 128]
0	0xbd9f874b	-0.07789477
1	0x3ddaa2fb	0.10675617
2	0xbd311bd3	-0.043239426
3	0xbe12dfc0	-0.14343166
4	0x3d9ba284	0.07599357
5	0xbc94cba2	-0.018163506
6	0x3c950300	0.018189907
7	0xbc290082	-0.0103150625
8	0xbc34fd9e	-0.011046795
9	0xbdf921aa	-0.12164624
10	0xbded720b	-0.115940176
11	0x3d10d460	0.035358787
12	0x3c5afad7	0.013365469
13	0xbd2510e9	-0.04029933
14	0x3c957bbc	0.018247478
15	0xbdec41ee	-0.115360126
16	0xbcfc7473	-0.030817246
17	0xbd4593b6	-0.04823657
18	0xbd3527f3	-0.04422755
19	0x3d608d5f	0.054822322
20	0x3d87134a	0.06595476
21	0x3d4a6e34	0.049421504
22	0x3c2241fc	0.009903427
23	0x3d2665d7	0.040624466
24	0xbc24de43	-0.010062757
25	0x3d806b00	0.06270409
26	0x3c2e98b0	0.010656521
27	0x3cd01fbe	0.02540576
28	0x3cba0777	0.022708638
29	0xbc500375	-0.012696137
30	0x3df75798	0.12077254
31	0x3dd13b77	0.1021642
32	0xbd3e97aa	-0.046531357
33	0xbd693614	-0.05693634
34	0xbd9b0004	-0.07568362
35	0x3cb1a2e4	0.021684118
36	0x3daa19a2	0.0830567
37	0xbc88ee30	-0.01671514
38	0x3b5051b2	0.0031786975
39	0x3dbbfff7	0.09179681
40	0x3d9ca406	0.076484725
41	0xbc5fac3c	-0.013651904
42	0x3e05f84b	0.13082998
43	0xbd02592a	-0.031823315
44	0xbdfc12dd	-0.123082854
45	0xbdbff98c	-0.09373769
46	0xbe1313eb	-0.14363067
47	0x3df248dd	0.11830304
48	0x3e19913f	0.14996813
49	0x3df158da	0.11784525
50	0xbd47ec42	-0.048809297
51	0xbdae9c5d	-0.08525918
52	0x3e0370cd	0.12835999
53	0xbe096183	-0.13416104
54	0x3d5bbd6e	0.05364745
55	0xbd33a4e6	-0.04385843
56	0x3d9f5040	0.07778978
57	0xbcee9fb9	-0.029128896
58	0x3b39be86	0.002834232
59	0x3df155de	0.11783956
60	0x3df00ca4	0.11721161
61	0x3cdf6469	0.027269559
62	0xbbcb3066	-0.006200838
63	0x3c34ece3	0.011042806
64	0x3cc2630b	0.023728868
65	0x3c58cb9a	0.013232136
66	0xbd65307f	-0.055954453
67	0xbb3b194d	-0.0028549016
68	0x3dfb393e	0.122667775
69	0xbd52d51c	-0.05147277
70	0x3cc0f292	0.023553167
71	0xbdaa10f4	-0.08304015
72	0x3d9f540e	0.07779704
73	0xbda00a8a	-0.0781451
74	0x3da0d534	0.07853165
75	0xbdd02ea3	-0.10165145
76	0xbbc0084c	-0.005860364
77	0xbdb99f7e	-0.09063624
78	0x3c930750	0.017947823
79	0xbd34b75b	-0.044120174
80	0x3a1bb8c7	0.0005940315
81	0x3d6ca71b	0.05777655
82	0x3c010206	0.007874018
83	0xbdb2894d	-0.08717594
84	0xbd3656ac	-0.04451625
85	0x3da09847	0.078415446
86	0xbbf04d6e	-0.007333449
87	0x3d0672ba	0.032824256
88	0x3c144691	0.0090500275
89	0x3d81340a	0.06308754
90	0xbe0bd13d	-0.13654037
91	0x3d7a7e8e	0.06115585
92	0xbdf8ddd4	-0.12151685
93	0x3d64de2e	0.05587595
94	0xbd458d1e	-0.048230283
95	0xbdcda6e1	-0.10041595
96	0x3cebfe08	0.028807655
97	0xbdb72c11	-0.08943952
98	0x3da7b787	0.08189302
99	0x3d85acfa	0.06527133
100	0xbdef78aa	-0.11692937
101	0xbb92ec7f	-0.004483759
102	0xbe4dd025	-0.20098932
103	0xbd1dce55	-0.03852685
104	0x3d969e2c	0.07354388
105	0xbdb76f2b	-0.089567505
106	0xbaf25d48	-0.0018490935
107	0x3e1b8ba3	0.15189986
108	0x3da9b12b	0.08285745
109	0x3c948dbf	0.018133996
110	0x3de7abda	0.11312075
111	0xbd578573	-0.0526175
112	0xbd1881d5	-0.037233192
113	0xbd01b286	-0.031664394
114	0x3c4a4d4a	0.012347529
115	0x3d06b5a9	0.03288809
116	0xbd87fa3d	-0.06639526
117	0x3b96f4d4	0.0046068225
118	0xbdd6d918	-0.10490626
119	0x3c25886e	0.010103328
120	0xbd395902	-0.0452509
121	0x3cbdcd25	0.02316911
122	0xbdbda754	-0.09260431
123	0xbd845503	-0.06461527
124	0xbd2030b0	-0.039108932
125	0x3d959f2a	0.07305749
126	0xbdedd938	-0.11613697
127	0x3d0dd31e	0.034625165
128	0x3d33b7f8	0.04387662
129	0x3e257007	0.16156016
130	0x3d663206	0.05620005
131	0xbd81269a	-0.06306191
132	0x3d9268a7	0.07148867
133	0xbd63c176	-0.05560442
134	0x3c52d330	0.012867734
135	0xbded07ad	-0.1157373
136	0xbd88c02c	-0.06677279
137	0x3cc24361	0.02371377
138	0xbb6de045	-0.0036297005
139	0x3d5e6ec5	0.054304857
140	0xbd0ed7fa	-0.03487394
141	0xbe1fd9c2	-0.15610412
142	0x3d99e2ad	0.07513938
143	0xbdd36850	-0.103226304
144	0xbb4df779	-0.0031428023
145	0x3c8de202	0.017319683
146	0x3b8635e3	0.0040957793
147	0xbca69b3c	-0.020337693
148	0x3ca7319c	0.020409398
149	0x3d082ad0	0.033243954
150	0x3995787e	0.00028509268
151	0xbc627458	-0.013821684
152	0xbd9e09c2	-0.07716705
153	0xbe159613	-0.1460803
154	0xbe0385a9	-0.12843956
155	0xbe2b8d22	-0.16753057
156	0x3df1852b	0.11792978
157	0x3d63ad81	0.055585388
158	0xbda28973	-0.079363726
159	0x3d9fc885	0.07801918
160	0x3b30621e	0.002691395
161	0xbc85cf41	-0.016334178
162	0xbd36ec4a	-0.044658937
163	0xbd00d3c5	-0.03145196
164	0x3c3e0896	0.011598727
165	0x3e0981e8	0.13428462
166	0x3ca47a5f	0.020077882
167	0xbd8122d9	-0.06305475
168	0xbce1ddd4	-0.027571596
169	0x3d84773f	0.06468057
170	0xbd2d64c2	-0.04233242
171	0xbcefb890	-0.029262811
172	0xbc200134	-0.009765912
173	0xbdc50605	-0.09620289
174	0xbd93bbbd	-0.072135426
175	0x3e10bbb4	0.14134103
176	0x3d9019fb	0.070362054
177	0x3d971083	0.07376196
178	0x3dca9c38	0.098930776
179	0x3d833bbc	0.06407878
180	0xbcc63355	-0.024194399
181	0xbccb8127	-0.024841858
182	0x3d33d26d	0.04390185
183	0xbd89e6fb	-0.06733509
184	0xbd698a66	-0.057016753
185	0xbcc6ecc7	-0.024282826
186	0xbd94eab8	-0.072713315
187	0x3ddfc580	0.10926342
188	0xbcf4ff39	-0.029906856
189	0x3e10f6f7	0.1415671
190	0x3d80098f	0.06251823
191	0x3dfb653a	0.12275167
192	0xbe01008e	-0.12597868
193	0x3d05475f	0.032538768
194	0xbd20ff50	-0.039305985
195	0xbb36b16c	-0.0027876748
196	0x3d7d66e7	0.061865713
197	0xbdac2c12	-0.08406843
198	0x3def1da1	0.11675573
199	0xbce7b033	-0.02828226
200	0xbd0b2e75	-0.03397985
201	0x3cd4ef2b	0.02599295
202	0x3caa54e5	0.020792434
203	0xbc63bbae	-0.013899727
204	0x3d355062	0.044266112
205	0x3de3431c	0.110967845
206	0x3dbe3da9	0.092891045
207	0xbe061d7f	-0.1309719
208	0xbda24007	-0.079223685
209	0x3d3bc81b	0.045845132
210	0x3cf8029c	0.030274682
211	0x3c03e4b7	0.008050135
212	0x3cc3862c	0.02386769
213	0x3d820fe9	0.06350691
214	0xbe2727a7	-0.1632372
215	0x3e0d6907	0.13809596
216	0x3d92fc31	0.07177008
217	0x3d844f03	0.06460383
218	0x3d5930d6	0.05302509
219	0x3a84b90f	0.0010125953
220	0xbd060f84	-0.03272964
221	0x3d8a6081	0.06756688
222	0x3d8c46f5	0.068494715
223	0xbd87b604	-0.066265136
224	0xbc0667b4	-0.008203436
225	0xbd2e5a3b	-0.04256652
226	0x3d05fc53	0.03271134
227	0xbd3b7db4	-0.045774177
228	0x3c9627a3	0.018329447
229	0xbd9913d4	-0.07474485
230	0x3d4bfdbe	0.049802534
231	0xbd934f96	-0.07192914
232	0xbcc63057	-0.024192972
233	0x3d79de9e	0.06100332
234	0xbdf225c8	-0.118236125
235	0x3da55fb0	0.080748916
236	0x3de503c1	0.111823566
237	0x3d4087b1	0.047004405
238	0x3d7fc3b3	0.062442493
239	0x3d164444	0.036686197
240	0xbdc67cfc	-0.09691808
241	0xbd6e4c6c	-0.05817835
242	0x3e3b5bfb	0.18296807
243	0x3db755ac	0.089518875
244	0xbb7d19a8	-0.0038620029
245	0xbb836679	-0.0040100184
246	0xbc248767	-0.010042048
247	0xbc67dbd5	-0.014151533
248	0xbcba7816	-0.02276234
249	0xbc6dbc49	-0.014510223
250	0xbdae2004	-0.085022
251	0x3d7a0245	0.06103732
252	0xbd3e3217	-0.04643449
253	0x3d5053cd	0.05086117
254	0xbd55d35e	-0.05220353
255	0x3d96121b	0.07327672

gru.bias_ih_l0 f4 [384]
0	0x3cd75451	0.026285322
1	0x3ce2d7e2	0.027690832
2	0xbcf0c8de	-0.029392656
3	0xbc827a85	-0.015927562
4	0x3cc9a903	0.024616724
5	0x3d87da3b	0.06633421
6	0xbd25fee8	-0.0405263
7	0x3d949d16	0.07256524
8	0xbd94694a	-0.07246645
9	0x3d92bce7	0.071649365
10	0xbd529999	-0.051416013
11	0x3ca54a3c	0.020177
12	0x3d7f1034	0.062271312
13	0xbd8a55c2	-0.06754638
14	0x3d88d254	0.06680742
15	0x3baac7dc	0.0052118134
16	0xbd32ba42	-0.04363466
17	0xbd514fa1	-0.05110133
18	0x3dd34b26	0.10317068
19	0x3da28661	0.07935787
20	0xbd576952	-0.052590676
21	0x3bce90a3	0.006303863
22	0xbcab272e	-0.020892706
23	0xbcb97cca	-0.022642512
24	0x3d90b475	0.070656694
25	0x3d086eff	0.03330898
26	0x3dabfe40	0.08398104
27	0x3c9ca25c	0.019120388
28	0x3d9b9712	0.07597174
29	0x3dc38e88	0.0954867
30	0x3d44f451	0.04808456
31	0x3cba05a2	0.022707764
32	0x3c16508a	0.009174475
33	0x3db5e541	0.08881617
34	0x3afe81d1	0.001941735
35	0xbd2dea2b	-0.042459648
36	0x3dc03625	0.09385327
37	0x3d8a7976	0.06761448
38	0x3dd08c1c	0.10182974
39	0x3dfba63b	0.12287565
40	0xbd37b716	-0.04485234
41	0x3d861d3e	0.06548546
42	0xbd682e6b	-0.056684893
43	0xbb51725d	-0.0031959035
44	0x3d814622	0.06312205
45	0x3d0c833e	0.03430485
46	0x3ced347a	0.028955687
47	0xbc00a826	-0.00785259
48	0x3de80e48	0.11330849
49	0xbd3c76c4	-0.0460117
50	0x3d965323	0.07340076
51	0xbda1ad49	-0.0789438
52	0x3be8e9bf	0.007107943
53	0x3db32de2	0.08748986
54	0xbd6bc425	-0.057560105
55	0x3d2be01f	0.041961785
56	0x3d93c556	0.07215373
57	0x3cc4789d	0.023983294
58	0x3e0a5d6e	0.13512203
59	0x3de30c85	0.11086372
60	0x3c9ffbfd	0.019529337
61	0x3c32714b	0.010891269
62	0x3dbfe98c	0.093707174
63	0xbd951229	-0.072788544
64	0xbc0c5d97	-0.008567235
65	0xbc405c4b	-0.011740754
66	0x3daba3aa	0.08380826
67	0x3d792601	0.06082726
68	0x3d5f8ebe	0.05457949
69	0x3ded7105	0.115938224
70	0x3d07c6f3	0.033148717
71	0x3db20e25	0.08694104
72	0x3c7c7c85	0.015410547
73	0xbd536ca0	-0.051617265
74	0xbd7ded62	-0.061993964
75	0xbc9f64fc	-0.019457333
76	0xbc9f52f2	-0.019448731
77	0x3dccf3f5	0.100074686
78	0xbd47c2a4	-0.04876961
79	0x3d05ab6b	0.03263418
80	0xbd33c7a8	-0.04389158
81	0xbd893fec	-0.06701645
82	0x3d301371	0.04298729
83	0x3bb90014	0.0056457613
84	0xbc5aeea9	-0.013362565
85	0x3d7005b7	0.0585992
86	0x3cb3bafa	0.021939743
87	0x3d15a4af	0.036534008
88	0xbc632772	-0.013864385
89	0x3d8db5da	0.06919451
90	0x3d5f5915	0.054528315
91	0x3cd8b79e	0.026454743
92	0x3d89746c	0.06711659
93	0x3caf0146	0.021362912
94	0xbd38b267	-0.045092013
95	0x39ca891d	0.000386306
96	0xbd1c8c03	-0.038219463
97	0x3dc3e5fb	0.0956535
98	0xbcb94474	-0.022615649
99	0x3d923034	0.071381
100	0xbd100644	-0.035162225
101	0xbd34392e	-0.043999843
102	0xbc9a42b9	-0.018830644
103	0x3d319ace	0.043360524
104	0x3d913c03	0.070915245
105	0xbd9fce7f	-0.07803058
106	0x3c4730dd	0.012157646
107	0xbd9eeff2	-0.0776061
108	0x3d37ee64	0.04490508
109	0x3ca484ca	0.02008285
110	0x3d99969a	0.07499428
111	0x3cf78a4a	0.030217309
112	0x3d6fc252	0.058534928
113	0xbcf2fa20	-0.029660285
114	0x3dac907a	0.08425994
115	0x3d7a7fc1	0.061156992
116	0x3d581017	0.05274972
117	0x3cda65a5	0.026659796
118	0x3da8eace	0.082479104
119	0x3d28479e	0.041083924
120	0x3dd1a3b2	0.102363005
121	0x3d5c9903	0.05385686
122	0x3c10d111	0.008838908
123	0xbcd4c3bf	-0.025972245
124	0x3d04afcf	0.032394227
125	0x3db5f6d3	0.088849686
126	0x3d17cd8a	0.03706125
127	0xbcf3b9b4	-0.029751636
128	0xbda50f28	-0.080595315
129	0x3e5c62d6	0.21522078
130	0xbd8c928d	-0.0686389
131	0x3b41e332	0.0029584882
132	0x3d370251	0.044679943
133	0xbde7fd38	-0.113275945
134	0x3d25251f	0.040318605
135	0xbdee35ae	-0.11631332
136	0xbd98748b	-0.07444104
137	0x3d90d691	0.07072175
138	0xba83533a	-0.001001931
139	0xbc92864b	-0.017886302
140	0x3c23b9e7	0.009993053
141	0x3d2dca71	0.04242939
142	0xbdad704a	-0.08468683
143	0xbdc84350	-0.09778464
144	0x3e34acf3	0.176441
145	0x3ccae980	0.024769545
146	0x3d568641	0.05237413
147	0x3bc54896	0.006020616
148	0xbdc9c661	-0.09852291
149	0xbd4ce91d	-0.050027
150	0xbd105933	-0.035241317
151	0xbd1305b3	-0.035894107
152	0x3ea030dc	0.31287277
153	0x3e24bdfa	0.16088095
154	0xbdefe8a7	-0.11714297
155	0xbda3869a	-0.079846576
156	0xbdb3b690	-0.087750554
157	0x3d029651	0.031881634
158	0xbdd81800	-0.10551453
159	0x3da0b816	0.078476116
160	0xbb2de3aa	-0.0026533403
161	0xbda28d4b	-0.07937106
162	0x3c183a4a	0.009291241
163	0xbe02f84d	-0.12790032
164	0xbddf8047	-0.10913139
165	0xbd3b90d9	-0.045792434
166	0x3bcc0ce5	0.006227123
167	0xbd5a637f	-0.053317543
168	0x3b030ffe	0.0019998546
169	0xbd127a4f	-0.035761174
170	0xbd920d8b	-0.07131489
171	0xbe03a8e5	-0.12857397
172	0xbd0898d1	-0.033348862
173	0xbd99b5de	-0.075053915
174	0xbd9e134d	-0.07718525
175	0x3cc92e63	0.024558252
176	0xbd0a3b5b	-0.033748012
177	0xbd9675c7	-0.07346683
178	0x3e62abcc	0.22135848
179	0xbc317455	-0.010830958
180	0x3e182dd5	0.14861234
181	0xbe02965b	-0.12752669
182	0x3bcfe438	0.0063443445
183	0x3ea46c3b	0.32113823
184	0xbdadfb26	-0.084951684
185	0xbcd99d90	-0.02656439
186	0x3e707c61	0.23484947
187	0xbd730b36	-0.059336863
188	0x3d266f3f	0.040633436
189	0xbd6a377b	-0.057181817
190	0xbde9f3b1	-0.114234336
191	0xbdb05bce	-0.0861126
192	0x3e827a8c	0.2548412
193	0xbdb21fc8	-0.08697468
194	0xbdbb95de	-0.09159444
195	0xbc86fc9c	-0.016477875
196	0xbd35f921	-0.04442704
197	0xbdddb714	-0.10825935
198	0xbc9b879e	-0.018985566
199	0x3e41f91e	0.18942687
200	0xbdfafc5a	-0.122551635
201	0xbd5af6a9	-0.05345789
202	0xbd980dab	-0.07424482
203	0x3c97b09e	0.018516835
204	0x3d271a34	0.040796474
205	0xbe38b7ff	-0.18038939
206	0xbd4bd957	-0.04976782
207	0xbd9e6199	-0.07733459
208	0xbd454946	-0.048165582
209	0xbde04d4f	-0.109522454
210	0xbd42177d	-0.04738568
211	0xbe2c2ddf	-0.16814373
212	0xbcfea504	-0.031084545
213	0xbd631764	-0.05544223
214	0x3dd0f526	0.10203008
215	0x3d802272	0.0625657
216	0x3a5e15f4	0.0008471899
217	0x3c9d99a6	0.019238304
218	0xbe296a65	-0.16544493
219	0x3d2b22aa	0.041781105
220	0xbd35d966	-0.04439678
221	0xbd867012	-0.065643445
222	0xbd4ed485	-0.050495643
223	0xbde8facd	-0.113759615
224	0xbd31014e	-0.043214135
225	0x3c4a747e	0.012356875
226	0xbc100f10	-0.008792654
227	0xbd5c888c	-0.05384116
228	0xbd890f9b	-0.0669243
229	0xbd64b464	-0.055836096
230	0xbdacc750	-0.08436453
231	0xbd49d8f4	-0.04927917
232	0xbd73c66f	-0.059515413
233	0x3d003ec0	0.031309843
234	0x3b2e3769	0.002658332
235	0x3dc7a315	0.09747902
236	0x3d2eec4b	0.042705815
237	0x3dd802de	0.10547422
238	0xbd2ac7d4	-0.041694477
239	0xbc981abf	-0.018567441
240	0x3d799e0e	0.06094175
241	0x3da88c4b	0.08229884
242	0x3e43f6c5	0.19137104
243	0xbc0789c6	-0.008272594
244	0xbdb6ad70	-0.08919799
245	0x3c75d370	0.015004024
246	0xbd99f450	-0.07517302
247	0xbd43791d	-0.047722925
248	0xbba419b8	-0.0050079487
249	0x3aad9ce0	0.0013245605
250	0x3df83518	0.12119502
251	0xbdbe3290	-0.09286988
252	0xbd35aa02	-0.044351585
253	0xbdb6127e	-0.08890246
254	0x3d349d26	0.04409518
255	0xbd8e479f	-0.069472544

gru.bias_hh_l0 f4 [384]
0	0x3d79a4e6	0.060948275
1	0x3b858cf0	0.004075639
2	0xbd2b38b5	-0.041802127
3	0xbc81d9d7	-0.015850944
4	0xbcb6a137	-0.02229367
5	0x3db800a8	0.089845
6	0x3d013819	0.03154764
7	0xbd621f25	-0.055205483
8	0x3d3f626c	0.04672472
9	0x3da3f4e7	0.08005696
10	0x3d80b12a	0.06283791
11	0xbcc9e5d1	-0.024645718
12	0x3cdf6190	0.027268201
13	0xbcde7dec	-0.027159654
14	0x3daee184	0.085391074
15	0x3c5f1a89	0.013617166
16	0x3dab60db	0.08368083
17	0xbc00f762	-0.007871481
18	0xbcec5672	-0.028849814
19	0x3db12f72	0.086516276
20	0xbd1b3b65	-0.03789844
21	0x3dc9396e	0.09825407
22	0x3dca1cb4	0.09868756
23	0x3e031589	0.12801184
24	0x3d5ca41a	0.053867437
25	0x3daaf61b	0.08347722
26	0xbcc8d720	-0.024516642
27	0x3d93d251	0.07217849
28	0xbd34fb26	-0.044184826
29	0x3e0c6640	0.1371088
30	0x3e23fe66	0.16015014
31	0x3da19138	0.078890264
32	0x3da58ad1	0.08083118
33	0x3d2bc190	0.041932642
34	0x3d816c38	0.06319469
35	0x3c21486f	0.00984393
36	0x3c5b52a9	0.013386407
37	0x3dac9ea1	0.084286936
38	0x3c9c1fa3	0.019058054
39	0x3da084a3	0.078377984
40	0xbd590199	-0.05298004
41	0xbc701641	-0.014653743
42	0x3d4e7d47	0.050412443
43	0x3d0821ef	0.033235487
44	0xbca997e0	-0.020702302
45	0x3d48bb97	0.049007025
46	0x3d307f08	0.043089896
47	0xbd0234a6	-0.03178849
48	0x3d466a18	0.048441023
49	0x3d9840ed	0.074342586
50	0x3dc914a6	0.098183915
51	0xbdc13c24	-0.09435299
52	0xbc9faeb9	-0.019492494
53	0xbd0293c8	-0.031879216
54	0xbd7e0913	-0.062020373
55	0xbc4926de	-0.012277333
56	0x3c2921bc	0.010322984
57	0x3c8a2bc9	0.016866582
58	0x3d3ad31c	0.045611486
59	0x3d3bb285	0.045824546
60	0xbc10b541	-0.008832277
61	0xbdbad534	-0.091226965
62	0xbd20d770	-0.039267957
63	0xbcbda57b	-0.023150196
64	0x3cd6c171	0.026215287
65	0xbd029057	-0.031875934
66	0x3d1f396e	0.03887313
67	0x3dc9e4cb	0.09858092
68	0xbd1b596d	-0.03792708
69	0x3d8068cb	0.06269988
70	0x3c2f0998	0.01068344
71	0xbc5a691b	-0.013330723
72	0xbd4cf12e	-0.050034694
73	0x3cce1cd9	0.02516024
74	0x3dbfa11e	0.093569025
75	0x3d66a378	0.05630824
76	0x3dd1d600	0.102458954
77	0xbcc61a4f	-0.024182467
78	0xbd6d3c65	-0.057918925
79	0x3c134f36	0.008991053
80	0xbd3670b1	-0.044541065
81	0x3da51be5	0.08061961
82	0x3d9b854c	0.07593784
83	0x3d985a16	0.074390575
84	0xb9bf7b6e	-0.0003652232
85	0x3bf63500	0.0075136423
86	0x3ce165a4	0.027514286
87	0x3e0025fe	0.12514493
88	0xbd03322d	-0.032030273
89	0x3d187c11	0.037227694
90	0x3d849579	0.06473822
91	0x3d1e0d8d	0.03858714
92	0x3cf0a016	0.02937321
93	0x3bbdc307	0.0057910713
94	0x3cd5ca13	0.026097333
95	0x3c965416	0.018350642
96	0xbd7d4981	-0.061837677
97	0xbbfa34f3	-0.0076357066
98	0x3de9339c	0.11386797
99	0x3d7ce6b2	0.061743446
100	0xbdbcd71d	-0.09220717
101	0x3dc3b144	0.09555295
102	0xb9505723	-0.00019868887
103	0x3e06c669	0.13161625
104	0xbd5d7182	-0.054063328
105	0xbd70703a	-0.058700778
106	0x3d0c497e	0.034249775
107	0x3d621288	0.055193454
108	0x3cfc865e	0.03082579
109	0xbbd5c1cb	-0.006523346
110	0xbc752e3d	-0.014964637
111	0x3d349786	0.044089817
112	0x3d0e79f2	0.034784265
113	0x3d3bd29d	0.045855153
114	0x3dce66c3	0.10078194
115	0x3d869884	0.06572059
116	0x3d7d334d	0.061816502
117	0xbc780eb4	-0.015140224
118	0x3dd02fcb	0.10165366
119	0x3db8fade	0.09032224
120	0xba42ecb2	-0.0007435783
121	0x3d2c29cb	0.042032044
122	0xbd0e1e8f	-0.03469711
123	0x3d3ee62d	0.04660623
124	0x3db4b755	0.0882403
125	0x3d721364	0.059100524
126	0x3db5521d	0.088535525
127	0x3d1e50c4	0.038651243
128	0xbd8d68be	-0.069047436
129	0x3e52f07b	0.20599549
130	0x3baebf09	0.0053328318
131	0x3c280fc5	0.010257666
132	0x3e1f6a05	0.15567787
133	0xbdd73e40	-0.1050992
134	0x3d4b3839	0.049614165
135	0xbe1bb2d1	-0.15204932
136	0xbd683602	-0.05669213
137	0x39c19af6	0.00036927284
138	0xbdcd10bd	-0.10012958
139	0xbd06862f	-0.03284281
140	0xbde7db03	-0.1132107
141	0x3c0cc8b7	0.008592776
142	0xbe32cb1a	-0.1746029
143	0x3a74dace	0.0009340466
144	0x3e15c598	0.14626157
145	0x3d8e5187	0.06949144
146	0x3d759df0	0.059965074
147	0x3d3cf69a	0.046133615
148	0xbdaa916b	-0.083285175
149	0xbd837cf9	-0.06420321
150	0xbd8847af	-0.066542976
151	0xbd72210b	-0.059113543
152	0x3eb8163c	0.35954463
153	0x3e0ed641	0.13948919
154	0xbc7abaf1	-0.015303359
155	0xbdd7001a	-0.10498066
156	0x3c9db1ee	0.019249883
157	0x3d383bf6	0.04497906
158	0xbb5d0358	-0.0033723917
159	0x3d6ebee4	0.058287516
160	0xbd482fad	-0.048873592
161	0xbcf8f30c	-0.030389331
162	0xbe054158	-0.13013208
163	0xbcbb1a5f	-0.022839723
164	0xbd565b2a	-0.052333035
165	0x3d0a5bd1	0.03377897
166	0x3d9a74b4	0.075417906
167	0xbd64c05f	-0.055847522
168	0x3baffb88	0.005370561
169	0x3db8f41e	0.09030937
170	0xbc7c5753	-0.015401679
171	0xbdf53494	-0.11972919
172	0xbe0cddc0	-0.13756466
173	0x3d8d8919	0.06910915
174	0x3d2d2d65	0.04227962
175	0x3d07f1cb	0.033189576
176	0x3d1a3c7e	0.037655346
177	0xbd6080a2	-0.054810174
178	0x3dc82597	0.09772795
179	0x3c8d49e3	0.017247146
180	0x3e41b37a	0.18916121
181	0x3c513d2c	0.012770932
182	0xbc35d241	-0.011097492
183	0x3ebb3568	0.36564183
184	0xbc8b92e0	-0.017037809
185	0xbe098784	-0.13430601
186	0x3e2b8505	0.16749962
187	0xbb02f5ab	-0.0019982855
188	0xbd28f5d8	-0.04125008
189	0xbd8413b2	-0.06449069
190	0xbe1e0a09	-0.15433516
191	0xbbac2fbf	-0.005254715
192	0x3e1964f5	0.14979918
193	0xbd6022b3	-0.05472059
194	0xbb99fcd1	-0.0046993275
195	0x3cb106fa	0.021609772
196	0xbd29ad5e	-0.0414251
197	0xbdeacfba	-0.11465402
198	0x3c989eaa	0.018630344
199	0x3e4910ee	0.19635364
200	0x3b40073b	0.0029301185
201	0xbbc8fb02	-0.006133438
202	0xbdd6ba32	-0.10484733
203	0xbd9fe764	-0.07807806
204	0x3d45d58c	0.048299357
205	0xbd45bc98	-0.04827556
206	0xbd9f388a	-0.07774456
207	0x3bd2dfde	0.0064353785
208	0xbd145d38	-0.036221713
209	0xbe0e599b	-0.1390137
210	0xbd615ec2	-0.05502201
211	0xbdd15fa5	-0.10223321
212	0xbcd06d6f	-0.025442807
213	0xbd39ea13	-0.045389246
214	0x3e5b552e	0.21419212
215	0x3d46ee6d	0.048567224
216	0xbc22e6e7	-0.009942747
217	0x3d15dba1	0.036586408
218	0xbe14bff0	-0.14526343
219	0xbd882d60	-0.066492796
220	0xbde8180e	-0.11332713
221	0xbbfa844b	-0.007645165
222	0x3d78bb45	0.06072547
223	0xbd058c6c	-0.03260462
224	0xbd5c856c	-0.05383818
225	0x3c26488e	0.010149134
226	0xbe073604	-0.13204199
227	0xbbdf2ee2	-0.006811009
228	0xbde227e9	-0.110427685
229	0xbca15261	-0.019692602
230	0xbd9b2a7e	-0.07576464
231	0x3dd0cf5f	0.10195803
232	0x3d3df3f5	0.046375234
233	0xbdc8a659	-0.09797353
234	0xbd5703e5	-0.05249395
235	0xbb363724	-0.0027803862
236	0x3da363a1	0.07977987
237	0x3e05d0f1	0.13067986
238	0xbd24f9ae	-0.040277176
239	0xbdeb97e9	-0.11503584
240	0xbd957e1b	-0.07299443
241	0x3d0f51a3	0.034989964
242	0x3ddf3de0	0.109004736
243	0x3cfc23a3	0.030778712
244	0xbd9c4967	-0.07631188
245	0xbd2d4f90	-0.042312205
246	0xbde8d9bc	-0.113696545
247	0x3cda8945	0.026676783
248	0x3cc0e510	0.023546726
249	0xbe0f5a80	-0.13999367
250	0x3e83ae06	0.25718707
251	0xbd92b9af	-0.071643226
252	0xbd9aad0f	-0.075525396
253	0x3b815aae	0.0039475774
254	0xbc8e3ad2	-0.017362032
255	0xbda958fc	-0.082689255

output.weight f4 [13, 128]
0	0x3e933537	0.28751537
1	0xbea855d8	-0.32877994
2	0x3e84b30e	0.25917858
3	0x3eb19f5d	0.34691897
4	0xbeb6a173	-0.3567005
5	0x3e978032	0.29589993
6	0xbea68579	-0.32523707
7	0x3e9f29c8	0.31086564
8	0x3ebafeb5	0.3652245
9	0x3ec4004f	0.38281485
10	0x3ebb2b43	0.36556444
11	0xbeb6aeee	-0.35680336
12	0x3ea28790	0.3174405
13	0x3ebb9624	0.36637986
14	0xbecc9a73	-0.39961585
15	0x3e941507	0.28922293
16	0xbeb46560	-0.35233593
17	0x3eae0442	0.33987623
18	0x3ea575e9	0.3231652
19	0xbeaf9a9f	-0.34297654
20	0xbeaafd52	-0.33396393
21	0xbe892295	-0.26784196
22	0x3ec2ba97	0.38032982
23	0xbebad14c	-0.36487806
24	0x3e9e64a8	0.3093617
25	0x3ecf1f1b	0.4045342
26	0xbeb61505	-0.35562912
27	0x3eb77df9	0.35838297
28	0xbea8a330	-0.32937002
29	0xbeab711d	-0.33484736
30	0xbeb57ce1	-0.35446838
31	0xbebd92b6	-0.37025994
32	0x3eb8eb16	0.36116856
33	0x3eb31ded	0.3498377
34	0x3eb84186	0.3598749
35	0xbeaa7250	-0.3329034
36	0xbeb776db	-0.35832867
37	0xbea77243	-0.32704362
38	0x3eb7ff34	0.35936892
39	0xbebb6484	-0.36600125
40	0xbeb35bfa	-0.3503111
41	0x3ead959b	0.33903202
42	0xbeacf714	-0.33782256
43	0x3e9b878f	0.3037686
44	0x3e8b88ef	0.2725291
45	0x3eae9151	0.34095243
46	0x3ec01eef	0.375236
47	0xbeaf3b7c	-0.3422507
48	0xbebc7f90	-0.36816072
49	0xbe94d3f2	-0.2906795
50	0xbeb91bf8	-0.3615415
51	0x3e95fba9	0.29293564
52	0xbeb2a526	-0.34891623
53	0x3ea55edc	0.32298934
54	0xbe85c072	-0.26123387
55	0x3ea5c866	0.32379454
56	0xbe96c955	-0.2945048
57	0xbea4f8d8	-0.32221103
58	0x3ebed247	0.37269804
59	0xbe9cdaa1	-0.3063555
60	0xbe9f7a74	-0.31148112
61	0xbeb0e1ad	-0.34547177
62	0xbe980405	-0.29690567
63	0xbe90773f	-0.28215978
64	0x3ed18087	0.4091837
65	0xbe90bf14	-0.2827078
66	0x3e9bd3de	0.3043508
67	0xbeadbaef	-0.33931682
68	0xbe892cd6	-0.2679202
69	0x3e9225c0	0.28544426
70	0xbebec36e	-0.37258476
71	0x3e9ae3cf	0.3025193
72	0xbe9dedb4	-0.30845416
73	0x3ea8cac1	0.3296719
74	0xbeb6d719	-0.3571098
75	0x3e88d24c	0.26722944
76	0x3eb0f7f6	0.3456418
77	0x3e9e1a82	0.308796
78	0xbe962c09	-0.2933047
79	0x3ec0fec7	0.3769438
80	0x3e8616e3	0.26189336
81	0xbe82ecd2	-0.25571305
82	0x3e98f8bb	0.29877266
83	0x3eaefe08	0.34178185
84	0x3ebffc50	0.37497187
85	0xbea36ab6	-0.3191735
86	0x3e9be190	0.30445528
87	0xbec8bce7	-0.3920662
88	0xbeb5c57e	-0.35502237
89	0xbea7bf7e	-0.32763284
90	0x3eb32659	0.34990194
91	0xbeb59525	-0.3546535
92	0x3e9429e3	0.28938207
93	0xbe8590f9	-0.26087168
94	0x3eb0a265	0.34498897
95	0x3e87a101	0.26490024
96	0xbe8bfa95	-0.27339616
97	0x3e926245	0.285906
98	0xbe89e21e	-0.26930326
99	0xbe973172	-0.2952991
100	0x3e70d05d	0.23516984
101	0x3ec0e191	0.37672094
102	0x3e9f9531	0.31168512
103	0x3ebe0d27	0.3711941
104	0xbeac6911	-0.3367391
105	0x3eb8cff6	0.36096162
106	0x3e9406be	0.28911394
107	0xbeb17fb7	-0.3466775
108	0xbea4f7b5	-0.32220235
109	0xbead135b	-0.3380383
110	0xbea57c22	-0.32321268
111	0x3ea4def5	0.32201353
112	0x3e92fdf5	0.2870938
113	0x3ea6d77f	0.32586285
114	0xbea465bf	-0.32108876
115	0x3eae1a95	0.34004655
116	0x3eb332c0	0.34999657
117	0x3ec3f7f5	0.38275114
118	0x3ea08726	0.3135311
119	0xbea465d3	-0.32108936
120	0x3ebfd52b	0.37467322
121	0x3e956824	0.29181015
122	0x3eb02ef6	0.34410828
123	0x3eb411a8	0.3516972
124	0x3ea17f3f	0.31542394
125	0xbed4a8a5	-0.41534916
126	0x3ec7efe2	0.39050204
127	0x3ec66199	0.38746336
128	0xbde50d0f	-0.11184131
129	0x3dbd48d3	0.09242406
130	0xbcd233ca	-0.02565946
131	0x3dacc0e6	0.0843523
132	0xbeed86c9	-0.46391895
133	0xbdef75de	-0.11692403
134	0x3ddff95d	0.10936234
135	0xbd02b48a	-0.031910457
136	0xbe8a0149	-0.26954105
137	0xbe008ae5	-0.12552984
138	0x3c281124	0.010257993
139	0x3d0a2d8a	0.033734836
140	0xbe12a3bb	-0.1432027
141	0xbe3bfa7e	-0.18357274
142	0x3e1eef08	0.1552087
143	0xbdf1a4a8	-0.11798984
144	0xbe90d928	-0.28290677
145	0xbe046c5b	-0.1293196
146	0xbe3112a1	-0.17292263
147	0x3e3a1dc9	0.18175425
148	0x3ce7b585	0.028284797
149	0x3c499860	0.012304395
150	0xbe02282d	-0.12710638
151	0xbd23c922	-0.039986737
152	0x3f45a72f	0.77208227
153	0x3e211938	0.15732276
154	0xbe05d6d1	-0.13070227
155	0x3d11f442	0.035633333
156	0xbcb469f6	-0.022023182
157	0xbd9ff59c	-0.07810518
158	0x3d8912f3	0.066930674
159	0xbe1387c0	-0.14407253
160	0x3d34ad43	0.044110548
161	0xbd31fcbf	-0.043453928
162	0xbdf12009	-0.11773688
163	0xbd5fae06	-0.05460932
164	0x3d222af5	0.03959175
165	0xbdc35932	-0.09538497
166	0x3e2d5215	0.16925843
167	0x3db8b0a6	0.09018068
168	0x3deb98d3	0.11503758
169	0x3d390473	0.04517026
170	0xbc069d00	-0.008216143
171	0xbdac8253	-0.08423295
172	0xbd9c0499	-0.076180644
173	0x3d64aa45	0.055826444
174	0xbe363c6f	-0.17796491
175	0xbe035571	-0.12825562
176	0x3e0b0a7a	0.13578215
177	0x3e47e563	0.19521098
178	0x3e34d5b9	0.17659654
179	0x3f01928f	0.50614256
180	0xbe4ede2d	-0.20201941
181	0xbe2cd1c2	-0.16876891
182	0xbc24d2cc	-0.0100600235
183	0x3f5ee14f	0.87062544
184	0x3cfa23a2	0.03053457
185	0x3e10e9d3	0.14151697
186	0x3ea534e7	0.32266924
187	0x3de5bacb	0.112172686
188	0xbda823ba	-0.08209939
189	0x3d95007f	0.07275485
190	0x3df67d04	0.120355636
191	0x3de757b0	0.11296022
192	0x3e19b627	0.15010892
193	0x3dfe4b29	0.124166794
194	0xbdbb89e1	-0.09157158
195	0xbd0f0e5a	-0.034925796
196	0x3e1d85b9	0.15383042
197	0xbd359268	-0.044329077
198	0x3b66130c	0.0035106568
199	0x3e7f0cc8	0.2490722
200	0xbcd31a60	-0.025769413
201	0xbdbe1cae	-0.09282814
202	0x3d59b4e0	0.05315101
203	0xbd1d2d26	-0.038373135
204	0x3d1a3c80	0.037655354
205	0xbddeefb6	-0.10885565
206	0x3b996e7e	0.004682361
207	0x3dbaef98	0.0912773
208	0xbdc7a765	-0.09748725
209	0x3cf0158b	0.029307147
210	0xbd6684ad	-0.056278873
211	0x3d8633ca	0.06552847
212	0x3d8673bd	0.06565044
213	0x3dbf4779	0.09339804
214	0xbe9f98d1	-0.31171277
215	0xbe7e9a28	-0.24863493
216	0x3bfff94c	0.007811701
217	0xbd845cbb	-0.064629994
218	0xbd7785c6	-0.06043031
219	0x3e957296	0.29188985
220	0xbc2bcb4a	-0.01048548
221	0x3d884d17	0.06655329
222	0x3d50b76d	0.05095618
223	0xbcdd1f3d	-0.026992435
224	0x3ddc197b	0.107470475
225	0xbdf0a04b	-0.117493235
226	0x3dd2d136	0.1029381
227	0x3df761e8	0.12079221
228	0xbd98eeb6	-0.074674055
229	0xbe13d97a	-0.1443843
230	0xbdf1e3eb	-0.1181105
231	0xbd6ce7c7	-0.057838228
232	0xbe0742fc	-0.13209146
233	0x3c716c00	0.014735222
234	0xbde047e6	-0.109512135
235	0xbedd4db5	-0.43223348
236	0x3e7ab85e	0.24484393
237	0xbe7b313c	-0.245305
238	0x3ea17f4c	0.31542432
239	0xbd5e93eb	-0.054340284
240	0x3cacd8b4	0.021099426
241	0x3e3e8e14	0.18608886
242	0xbe0bef38	-0.13665473
243	0xbc3f4277	-0.011673561
244	0xbda52ddd	-0.08065388
245	0xbe2af3aa	-0.16694513
246	0xbd74e966	-0.0597929
247	0x3da6619b	0.081240855
248	0xbca67ca2	-0.020323101
249	0x3c13d3bf	0.009022652
250	0xbe761d9e	-0.24034736
251	0x3de3162d	0.11088214
252	0xbdc72638	-0.097240865
253	0xbd47cd5b	-0.048779827
254	0xbc868f5b	-0.01642578
255	0x3e903e3f	0.2817249

output.bias f4 [13]
0	0xbe3c87f3	-0.18411236
1	0x3dd62af9	0.10457415
2	0xbd64ed40	-0.05589032
3	0x3db3f093	0.0878612
4	0xbd1b9880	-0.037987232
5	0x3c2f4fba	0.010700161
6	0x3c21ba7d	0.009871122
7	0x3de2fbb7	0.11083167
8	0xbd7e6c6b	-0.062115114
9	0x3d9c2a50	0.07625258
10	0xbd96171b	-0.07328626
11	0xbcfa9532	-0.03058872
12	0xbc24fd3c	-0.010070141
