Model/encoder_weights.pth (torch, 310706 bytes, 12 tensors)

gru.weight_ih_l0 f4 [384, 13]
0	0xbd9d7b11	-0.07689489
1	0x3da7d2a6	0.08194475
2	0xbcf4b878	-0.029873118
3	0x3db05d6a	0.08611567
4	0x3d9d0276	0.07666485
5	0xbd6f34d8	-0.058400005
6	0x3d02c505	0.031926174
7	0xbd2281f0	-0.0396747
8	0xbd802d3e	-0.06258629
9	0x3d26aa4f	0.040689763
10	0xbddfceb8	-0.109281
11	0xbdafef93	-0.08590617
12	0x3d07d7f0	0.03316492
13	0xbd80eb07	-0.06294828
14	0x3db43b77	0.088004045
15	0x3d706a7a	0.058695294
16	0xbd4a581f	-0.049400445
17	0x3d966a8e	0.073445424
18	0xbd592d4f	-0.053021725
19	0xbd227894	-0.039665774
20	0x3cdb5c12	0.026777301
21	0x3cb960b3	0.022629118
22	0x3d37e706	0.044898055
23	0x3db34d38	0.08754963
24	0x3d40a1f1	0.04702944
25	0xbd918e30	-0.07107198
26	0x3d1dba33	0.03850765
27	0x3cce3631	0.025172325
28	0xbd18350f	-0.037159976
29	0xbe06044e	-0.1308758
30	0x3cc823cd	0.024431134
31	0xbd4a2121	-0.049348
32	0xbe06fdd9	-0.13182773
33	0x3de22b53	0.1104342
34	0xbdcf66f2	-0.10127057
35	0x3c68a97b	0.014200564
36	0x3cfd9947	0.030956877
37	0x3d8da7c8	0.06916767
38	0x3a7726c8	0.0009428081
39	0xbe1171fd	-0.1420364
40	0x3a46821e	0.00075724896
41	0x3b17330a	0.0023071193
42	0xbde60a7b	-0.11232468
43	0x3cec3418	0.028833434
44	0x3d6f3a7d	0.05840539
45	0xbce751e9	-0.0282373
46	0xbdb20d45	-0.08693937
47	0x3d62009e	0.05517637
48	0x3d50516a	0.050858893
49	0x3c5258d5	0.012838562
50	0x3ce95b8b	0.028486034
51	0x3c87eee8	0.016593412
52	0xbc36c467	-0.011155224
53	0x3d620c66	0.055187605
54	0x3e2e5d0b	0.1702768
55	0x3d7c2388	0.061557323
56	0xbb922368	-0.004459787
57	0x3c97d806	0.018535625
58	0x3c959540	0.018259645
59	0x3de84d78	0.11342901
60	0xb9c2b15f	-0.00037134715
61	0x3d0ce345	0.03439643
62	0xbd7608f6	-0.06006714
63	0x3d8ee89f	0.06977963
64	0xbc790ed0	-0.0152012855
65	0x3d415bbd	0.04720663
66	0xbe45d11c	-0.1931805
67	0xbcdda6cc	-0.027057074
68	0xbca2f8d5	-0.019894043
69	0x3d55b172	0.05217118
70	0xbd56308b	-0.052292388
71	0x3da09d9c	0.078425616
72	0x3dfad14d	0.12246952
73	0x3d36364c	0.044485375
74	0xbd7a0280	-0.06103754
75	0x3d7c8580	0.061650753
76	0x3db713a6	0.089392945
77	0x3d87f060	0.06637645
78	0xbd8fb27c	-0.07016465
79	0x3d8bbeea	0.06823523
80	0x3dcb780f	0.09935009
81	0xbd8cd0ac	-0.068757385
82	0xbd8b908c	-0.068146795
83	0x3df5534a	0.11978777
84	0x3d3b129b	0.04567204
85	0xbded33ae	-0.11582123
86	0xbd41002b	-0.0471193
87	0x3e281df3	0.16417675
88	0x3c80288b	0.015644332
89	0xbd81b30d	-0.06332979
90	0x3bdd124a	0.006746565
91	0x3e149cd9	0.14512958
92	0xbc0716ee	-0.008245213
93	0xbcf0e6ca	-0.029406924
94	0x3c8604ab	0.016359648
95	0x3d66eed5	0.05638011
96	0x3d2f4d32	0.04279823
97	0xbd5b4444	-0.0535319
98	0x3c8a3ec8	0.01687564
99	0xbe2e5392	-0.17024067
100	0xbcf8d62a	-0.030375559
101	0xbd4f8111	-0.050660197
102	0xbc251728	-0.010076322
103	0x3c056c54	0.008143503
104	0xbab75eb6	-0.0013990018
105	0xbd4a71a9	-0.0494248
106	0xbd86c94f	-0.06581365
107	0x3de4d456	0.11173312
108	0x3d072c83	0.033001434
109	0x3d72e3c8	0.05929926
110	0xbd61f73e	-0.05516743
111	0xbd4126d0	-0.047156155
112	0x3e085f7e	0.13317677
113	0x3d897871	0.067124255
114	0x3d1d1e91	0.03835923
115	0xbb7df215	-0.0038749028
116	0x3d53abdf	0.05167758
117	0x3dafc4d1	0.085824616
118	0xbcd0e26f	-0.025498597
119	0xbdc413b6	-0.09574072
120	0xbd4bed80	-0.049787045
121	0xbdd2c96a	-0.10292323
122	0xbc040dba	-0.008059913
123	0xbd64fbea	-0.055904306
124	0xbd1ca55c	-0.038243636
125	0xbe11303b	-0.14178555
126	0x3c84f84a	0.016231675
127	0xbdeece2c	-0.11660418
128	0xbd512499	-0.051060293
129	0x3d4b7cf6	0.04967972
130	0x3d79dff2	0.061004587
131	0xbd7fb36a	-0.062426962
132	0x3d4cd942	0.05001188
133	0xbd03631d	-0.032076944
134	0x3c8391b3	0.016060686
135	0xbd21f35b	-0.039538722
136	0x3df33c9a	0.11876793
137	0x3e1ea7f7	0.15493761
138	0x3d93cd30	0.07216871
139	0x3c2a4f07	0.010394818
140	0x3d490a61	0.049082164
141	0x3e49993f	0.19687365
142	0xbcb08322	-0.021546904
143	0x3c7aded9	0.01531192
144	0xbd6cdd51	-0.05782825
145	0xbc901327	-0.017587258
146	0xbcaa6787	-0.020801319
147	0xbd4d204b	-0.050079625
148	0x3e029fe7	0.1275631
149	0xbc1eb935	-0.0096877115
150	0x3c4929ef	0.012278064
151	0x3a8846cb	0.0010397075
152	0x3db14df8	0.086574495
153	0x3df390f1	0.1189288
154	0x3e1664f3	0.14686947
155	0x3b79d587	0.0038121657
156	0x3d4cec89	0.050030265
157	0x3d4789b3	0.048715305
158	0x3c08cc0b	0.008349429
159	0xbdbfe3b6	-0.09369604
160	0x3cf210ec	0.029549085
161	0xbe0322f6	-0.12806305
162	0x3be2a0b7	0.0069161314
163	0x3d153b20	0.03643334
164	0xbde6bc8f	-0.112664334
165	0x3d9355d9	0.071941085
166	0x3cb23aeb	0.02175661
167	0x3ccd7da9	0.025084333
168	0xbd552fb7	-0.052047458
169	0x3ccf5f9d	0.025314147
170	0xbd747737	-0.059684005
171	0x3d8d5ce7	0.06902485
172	0x3d86e250	0.065861344
173	0x3d86ae27	0.06576186
174	0x3df47ec6	0.119382426
175	0x3e066b8a	0.1312696
176	0x3d880396	0.06641309
177	0x3d44cf30	0.048049152
178	0x3d89603d	0.06707809
179	0x3daf461b	0.085582934
180	0xbbff7aaa	-0.007796605
181	0xbdc070cb	-0.093965136
182	0x3da35670	0.07975471
183	0x3cc5f455	0.024164358
184	0x3d2e68e0	0.042580485
185	0x3c7d7dda	0.0154719
186	0xbd31a9cd	-0.043374825
187	0x3de7336f	0.11289107
188	0xbd8c5a15	-0.06853119
189	0xbcf13930	-0.029446214
190	0x3d45a578	0.048253506
191	0xbddce3df	-0.107856505
192	0x3d7d81b3	0.06189127
193	0xbd75cb95	-0.060008604
194	0xbce8aae4	-0.0284018
195	0xbdb444db	-0.08802196
196	0xbc27c3f9	-0.010239595
197	0x3cdbb4ca	0.026819605
198	0xbca59a4e	-0.02021518
199	0xbd891469	-0.06693346
200	0xbda9fb3b	-0.082998715
201	0x3df05c18	0.117363155
202	0xbc6896b8	-0.01419609
203	0xbdd760a6	-0.10516481
204	0x3d8518d1	0.06498874
205	0xbcc10509	-0.023561971
206	0xbe1f83dc	-0.15577644
207	0xbd3da844	-0.04630305
208	0x3d6c316f	0.05766433
209	0xbd9b5edf	-0.075864546
210	0xbd22527d	-0.03962945
211	0xbdf915e7	-0.12162381
212	0x3ca76956	0.02043597
213	0xbd9508b7	-0.07277053
214	0xbdbadb39	-0.09123845
215	0xbcf75116	-0.030190032
216	0xbd328806	-0.043586753
217	0xbcc223c6	-0.023698699
218	0xbd22897d	-0.0396819
219	0xbda5514a	-0.08072145
220	0x3db9923d	0.09061096
221	0xbdcb352d	-0.09922252
222	0x3d36ba5f	0.04461133
223	0x3ca3b342	0.019982938
224	0x39c2a034	0.00037121924
225	0xbe07c7c3	-0.13259797
226	0xbd191e4b	-0.037382405
227	0x3dbb2357	0.091376
228	0xbdecb296	-0.115575
229	0xbd620263	-0.055178057
230	0x3d3b48ec	0.04572384
231	0xbd5a03a5	-0.053226132
232	0x3dc1629a	0.09442635
233	0x3a80497a	0.0009787523
234	0xbd06c033	-0.03289814
235	0xbdb20ea4	-0.08694199
236	0xbdf36f9c	-0.11886522
237	0x3ad8c0aa	0.001653691
238	0xbc548eda	-0.012973512
239	0xbd504bde	-0.050853603
240	0xbdf868ca	-0.12129362
241	0xbcf867d0	-0.03032294
242	0x3d304e3a	0.043043353
243	0x3dc108df	0.0942552
244	0x3d2874c6	0.04112699
245	0xbd2ad539	-0.04170725
246	0x3cdfba03	0.027310377
247	0xbca71c0d	-0.020399118
248	0xbd730c67	-0.059338
249	0xbd5ce713	-0.053931307
250	0xbaa2939c	-0.001240361
251	0xbc81d997	-0.015850825
252	0x3d222bd2	0.03959257
253	0x3d40aa78	0.04703757
254	0x3c08f0ce	0.008358194
255	0x3c3ca450	0.0115137845

gru.weight_hh_l0 f4 [384, 128]
0	0xbe5e5ca6	-0.2171503
1	0xbba1e316	-0.004940401
2	0xbd8d6ff0	-0.06906116
3	0xbd09e39c	-0.03366433
4	0x3d13c483	0.03607608
5	0xbd00d223	-0.031450402
6	0x3d7c40da	0.061585285
7	0x3d59f70c	0.053214118
8	0xbca39af1	-0.019971343
9	0xbe003a8b	-0.12522332
10	0x3db64cd6	0.08901374
11	0xbd2fb036	-0.042892657
12	0x3dfcde6e	0.123471126
13	0x3d7ff402	0.062488563
14	0xbc39e753	-0.011346656
15	0x3d6fea17	0.058572855
16	0xbd808a44	-0.06276372
17	0xbbb28e85	-0.0054491186
18	0x3e08cfeb	0.13360564
19	0xbd65668b	-0.056005996
20	0x3ddce919	0.10786647
21	0xbd94e81d	-0.072708346
22	0x3d2a4ab1	0.041575138
23	0x3ca33dbc	0.019926898
24	0x3de13770	0.10996902
25	0x3ddac470	0.10681999
26	0x3c3b35df	0.011426418
27	0xbe11c0d3	-0.14233713
28	0xbd22fb9d	-0.03979074
29	0xba540de9	-0.0008089231
30	0x3b974d98	0.004617404
31	0x3c6fb8f0	0.014631495
32	0x3d3c164b	0.045919698
33	0xbde596e7	-0.11210423
34	0x3d592944	0.05301787
35	0x3c900539	0.017580615
36	0x3da988a2	0.08278014
37	0xbd300554	-0.04297383
38	0xbdcb7d44	-0.09936002
39	0xbd09328f	-0.033495482
40	0xbd4d71dc	-0.050157413
41	0x3db231f4	0.08700934
42	0xbdeba3c0	-0.11505842
43	0x3d731e77	0.059355225
44	0xbd34e9c9	-0.044168267
45	0xbda2290c	-0.07917985
46	0x3c8e745e	0.017389473
47	0xbdf35b87	-0.11882692
48	0x3d710eee	0.05885213
49	0xbe15f69b	-0.14644854
50	0x3cff2cd2	0.031149302
51	0x3d871814	0.065963894
52	0x3d1e63bb	0.03866933
53	0xbc83c082	-0.016083006
54	0xbe041bb2	-0.1290119
55	0xbdc57ae8	-0.09642583
56	0xbca5d289	-0.020241993
57	0x3d846f5a	0.06466551
58	0x3c1e66f8	0.009668104
59	0x3cf33961	0.029690446
60	0xbd1896fb	-0.03725336
61	0xbdb7a406	-0.08966832
62	0xbc8a3079	-0.016868817
63	0xbd851527	-0.06498175
64	0xbb8797c2	-0.004137964
65	0x3d90ecbc	0.070764035
66	0xbb37ebd6	-0.0028064153
67	0xbb356a48	-0.0027681757
68	0x3d9869f7	0.07442086
69	0xbcd1ada5	-0.025595495
70	0xbe12b45c	-0.14326614
71	0xbd85fe07	-0.065425925
72	0x3d503c8f	0.050839003
73	0xbc2dbc0e	-0.010603918
74	0xbdb4b3d3	-0.08823361
75	0x3958a548	0.00020660937
76	0x3d9d3f08	0.07678038
77	0x3de1fefc	0.110349625
78	0x3dbea774	0.09309283
79	0x3ac63ff1	0.0015125257
80	0xbcc52aca	-0.024068255
81	0xbdbb27f2	-0.09138478
82	0xb984e758	-0.00025349366
83	0x3db75f26	0.08953695
84	0x3c68a15e	0.014198629
85	0xbcd29d53	-0.025709784
86	0xb9f6a07b	-0.00047040344
87	0x3ce39407	0.027780546
88	0xbd59a684	-0.053137317
89	0xbd141b93	-0.03615911
90	0xbcd8d820	-0.026470244
91	0xbc9263f8	-0.017869934
92	0x3d14b3c6	0.036304258
93	0xbe18d263	-0.14924006
94	0xbd188d40	-0.03724408
95	0x3cb9dd68	0.022688583
96	0xbc101e97	-0.008796356
97	0x3d8ccc95	0.068749584
98	0x3c9accbd	0.018896455
99	0xbd0a5bdc	-0.03377901
100	0x3daefeb6	0.08544676
101	0x3ce36c8b	0.027761718
102	0x3e24b4a8	0.1608454
103	0xbc4ddaa3	-0.012564334
104	0x3d18a356	0.037265144
105	0x3d8469a2	0.0646546
106	0xbd21ffbf	-0.03955054
107	0x3b911bbc	0.004428355
108	0x3e00c4c0	0.12575054
109	0x3da50fc5	0.080596484
110	0xbd597270	-0.05308765
111	0x3d708ff1	0.058731023
112	0x3d380bdb	0.04493318
113	0x3d79db0b	0.06099991
114	0xbd6ca188	-0.057771236
115	0xbd7231cf	-0.059129532
116	0xbdbfe275	-0.09369365
117	0xbe1673b8	-0.1469258
118	0xbd8c336f	-0.06845748
119	0xbc844ae9	-0.016149001
120	0x3dee9833	0.116501234
121	0x3cb3f345	0.021966586
122	0x3dd134a2	0.10215117
123	0x3d4b9662	0.049703963
124	0xbd9c7e82	-0.07641317
125	0xbe0b0f59	-0.13580073
126	0xbc685bd5	-0.014182051
127	0x3d9f8014	0.07788101
128	0x3d711e4c	0.058866784
129	0xbd527d2f	-0.051388916
130	0xbc8988ca	-0.016788859
131	0xbdeca546	-0.11554961
132	0x3d80cb0b	0.062887274
133	0xbdf6b772	-0.12046708
134	0x3d0a7b51	0.03380901
135	0xbdf89e5d	-0.121395804
136	0xbdaa1c94	-0.08306232
137	0xbdf34766	-0.118788525
138	0xbccd37a6	-0.02505095
139	0xbd9561da	-0.07294054
140	0x3d49ff36	0.049315654
141	0xbdb0dfdb	-0.08636447
142	0x3dd6e340	0.10492563
143	0xbe258819	-0.16165198
144	0x3d62c1fb	0.055360775
145	0xbd068090	-0.03283745
146	0x3d83fb5d	0.06444428
147	0x3da2f503	0.079568885
148	0x3cac0b00	0.021001339
149	0xbc829d46	-0.015944134
150	0xbd554348	-0.052066118
151	0x3d858774	0.06519976
152	0x3ddba922	0.10725619
153	0x3cc41035	0.02393351
154	0x3de86178	0.11346716
155	0x3d893caa	0.06701024
156	0xbd8bec36	-0.06832163
157	0xbccb8f36	-0.024848562
158	0x3d833f88	0.06408602
159	0xbcca23a2	-0.024675194
160	0xbdd9ca9f	-0.1063435
161	0xbd9a0e5c	-0.0752227
162	0xbd922a6d	-0.07136998
163	0x3dbb9e20	0.09161019
164	0x3dc065b3	0.093943976
165	0xbb454724	-0.0030102218
166	0xbc19ebbf	-0.009394585
167	0x3dcf63f4	0.101264864
168	0x3b784100	0.003788054
169	0x3d9b38e9	0.07579214
170	0xbccd1c89	-0.02503802
171	0x3de43a02	0.111438766
172	0x3c879366	0.016549777
173	0x3d8bbe0b	0.06823357
174	0x3d1f222b	0.038850944
175	0x3d2a2e5c	0.041548118
176	0xbce7be3f	-0.028288959
177	0xbd41996e	-0.047265463
178	0x3d8a6669	0.067578144
179	0x3d5e175e	0.054221503
180	0xbd27680c	-0.04087071
181	0xbc821441	-0.015878798
182	0xbdea0f7d	-0.114287354
183	0x3e034bc1	0.12821867
184	0x3c9a3c38	0.018827543
185	0xbce2fecf	-0.027709393
186	0xbdfb2938	-0.12263721
187	0x3e15e97d	0.1463985
188	0xbe28a9db	-0.16471045
189	0x3e13c336	0.14429936
190	0x3d67f4a7	0.056629803
191	0x3d19445b	0.037418704
192	0x3b77f74f	0.0037836616
193	0xbd2476d8	-0.0401524
194	0xbc635b9f	-0.013876825
195	0xbe0271a0	-0.12738657
196	0x3e126cd6	0.1429933
197	0x3d8a32db	0.06747981
198	0xbc6e7510	-0.014554277
199	0x3d4fe355	0.05075391
200	0x3cde04c9	0.027101891
201	0xbc6086f5	-0.013704051
202	0x3bd35aba	0.0064500244
203	0xbde52bcd	-0.11189995
204	0xbbf6000e	-0.0075073307
205	0x39d344fb	0.0004029645
206	0x3cdb5d1b	0.026777795
207	0xbcf1ee52	-0.029532585
208	0xbd952c09	-0.0728379
209	0x3ba2c174	0.004966909
210	0x3d9a8b8b	0.07546147
211	0xbd2b9410	-0.04188925
212	0xbb8564a0	-0.0040708333
213	0xbde48a20	-0.11159158
214	0xbca66793	-0.02031306
215	0x3d2dcf64	0.04243411
216	0x3d169a0a	0.036767997
217	0x3d0782dd	0.033083785
218	0x3b8ebda1	0.0043561016
219	0xbdfa39c3	-0.122180484
220	0xbd22d34e	-0.039752297
221	0x3e30ebad	0.17277403
222	0x3dce5878	0.10075468
223	0xbd8f531f	-0.06998276
224	0x3d0a079e	0.03369867
225	0xbcc48d35	-0.023993114
226	0xbdd90f7c	-0.105986565
227	0xbd19658d	-0.037450362
228	0x3da66fb7	0.08126777
229	0x3ce2166e	0.027598586
230	0x3d3e3934	0.046441272
231	0xbd70eb7e	-0.058818333
232	0xbd020779	-0.031745408
233	0x3dcc7aec	0.09984383
234	0xbd92dfec	-0.07171616
235	0xbd10321d	-0.03520404
236	0x3dfec2d7	0.124395065
237	0x3db4d3b8	0.08829445
238	0x3c49f0fd	0.0123255225
239	0x3d80fca4	0.062981874
240	0x3d00674a	0.031348504
241	0x3d467ecb	0.048460763
242	0xbcef9a65	-0.029248426
243	0xbe1e4154	-0.15454608
244	0xbe16d8dc	-0.14731163
245	0xbd944ff6	-0.07241814
246	0xbc81c538	-0.015841112
247	0xbc0bf923	-0.008543286
248	0x3e0a3bc8	0.13499367
249	0x3d0bbc08	0.034114867
250	0x3d1da85c	0.038490638
251	0x3d7e965a	0.062155105
252	0x3d9e1bf7	0.077201776
253	0x3da35046	0.07974295
254	0x3d8e6217	0.06952303
255	0x3dcc819b	0.09985658

gru.bias_ih_l0 f4 [384]
0	0xbd229ddc	-0.039701328
1	0x3d23a931	0.039956275
2	0xbdd15500	-0.102212906
3	0x3bc6129c	0.006044699
4	0xbddd8293	-0.10815921
5	0x3da53246	0.080662295
6	0xbcc02903	-0.023457056
7	0x3ca92c58	0.020651028
8	0x3d6fa2cf	0.058504876
9	0xbd8eb031	-0.069671996
10	0xbb95a37d	-0.0045666085
11	0x3d948393	0.07251658
12	0x3cc4c791	0.024020942
13	0x3e078282	0.13233379
14	0x3d508184	0.050904766
15	0x3de35839	0.111008115
16	0xbd921626	-0.07133131
17	0x3d07cb88	0.033153087
18	0x3d84cb22	0.06484057
19	0x3d83ba7a	0.06432052
20	0x3d01a90c	0.031655356
21	0x3d75da41	0.060022596
22	0x3d879233	0.06619682
23	0x3d13fc9a	0.03612957
24	0xbdd09a12	-0.101856366
25	0x3d996516	0.07489984
26	0x3dc09cbc	0.09404895
27	0xbbaecf60	-0.0053347796
28	0xbd7b197f	-0.06130361
29	0x3d99fdf6	0.07519142
30	0xbb148e9c	-0.002266801
31	0x3d91220d	0.07086573
32	0x3d1625f3	0.036657285
33	0xbd5cf587	-0.05394509
34	0xbc575dbb	-0.013144906
35	0x3ddeb60a	0.10874565
36	0xbd6ebeea	-0.05828754
37	0xbd40d8c2	-0.047081716
38	0x3d120028	0.03564468
39	0xbd043b7e	-0.0322833
40	0x3c890f2e	0.016730871
41	0x3dbd49f7	0.09242623
42	0xbd9b7fa1	-0.07592703
43	0xbc9687f1	-0.018375369
44	0x3bc4ec29	0.006009598
45	0x3d9acf37	0.07559054
46	0xbd507e31	-0.050901596
47	0x3d592bea	0.053020395
48	0x3d9adb7f	0.07561397
49	0xbbdd7a49	-0.0067589623
50	0xbbe50a71	-0.00698977
51	0xbe2d5a03	-0.16928868
52	0x3d7444a1	0.059635762
53	0xbc0b0d8f	-0.008487119
54	0xbc6d2f18	-0.01447656
55	0xbac74b3f	-0.001520492
56	0x3cfcded8	0.030867979
57	0x3dc23862	0.094834104
58	0x3e1a6829	0.15078796
59	0x3db00c1a	0.08596058
60	0xbbfa525e	-0.0076392135
61	0x3dad0971	0.084490664
62	0x3d6927bc	0.05692266
63	0x3d34570a	0.04402832
64	0x3c46044c	0.012085985
65	0x3de209a0	0.11036992
66	0x3cc217c8	0.02369298
67	0xbd8d3905	-0.06895641
68	0xbd3e743b	-0.046497565
69	0x3dc4b374	0.096045405
70	0x3d16bfb1	0.036803905
71	0x3cdda706	0.027057182
72	0xbdaccb70	-0.0843724
73	0xbd3176f4	-0.043326333
74	0x3dda7994	0.106677204
75	0xbc7b7a83	-0.015349033
76	0xbb327f1b	-0.0027236405
77	0xbdeadfb5	-0.1146845
78	0x3ba998e9	0.005175699
79	0x3ca60ec3	0.02027071
80	0xbd972fd1	-0.07382167
81	0xbd8b3f2d	-0.06799159
82	0x3c167cec	0.009185057
83	0x3ddd550e	0.108072385
84	0x3e14704b	0.14495961
85	0x3caffd10	0.021482974
86	0x3d3b1fdb	0.045684677
87	0xbd3d3e5f	-0.04620206
88	0x3d471886	0.04860737
89	0x3dee6a85	0.11641411
90	0xbd8415a2	-0.06449439
91	0x3d22e0b6	0.039765082
92	0xbdd8b8d6	-0.1058213
93	0x3d14e2dd	0.036349166
94	0x3d2598b8	0.040428847
95	0x3e16e785	0.14736755
96	0xbd093c4f	-0.03350478
97	0xbacbd421	-0.001555089
98	0xbc547821	-0.012968094
99	0xbd82f9e9	-0.06395323
100	0x3de8cc42	0.11367084
101	0x3d1bdbd8	0.038051456
102	0x3c4a0f72	0.012332784
103	0xbca412b2	-0.020028446
104	0xbd06003f	-0.03271508
105	0x3dcfc966	0.101458356
106	0x3d3d9b1d	0.046290506
107	0x3d5caee0	0.05387771
108	0xbd02adae	-0.031903915
109	0x3d375b4f	0.044764813
110	0x3d98f2e7	0.07468205
111	0xbd45fa63	-0.04833449
112	0xbd69207e	-0.056915753
113	0xbe24b262	-0.16083673
114	0xbd6c18a7	-0.057640698
115	0x3da28e6b	0.0793732
116	0x3d2fff65	0.042968173
117	0xbc58bed2	-0.013229089
118	0xbd0b8a90	-0.03406769
119	0xba890f1f	-0.0010456777
120	0xbcb25daf	-0.021773187
121	0x3d944be6	0.07241039
122	0x3cf7bc05	0.030241022
123	0x3bb6c2c5	0.0055774176
124	0xbd485525	-0.048909325
125	0x3d33d27f	0.043901917
126	0x3db2f7bb	0.08738657
127	0x3d7769fb	0.060403805
128	0x3de20576	0.11036198
129	0x3cc33c2f	0.023832409
130	0x3dc0d37a	0.09415336
131	0xba9d98a3	-0.0012023639
132	0x3b4fbbe4	0.0031697685
133	0xbdaeb820	-0.08531213
134	0xbcd4d155	-0.025978724
135	0x3bf87805	0.007582667
136	0x3da7c2bd	0.0819144
137	0x3dbf0c52	0.09328522
138	0x3eb5f273	0.35536537
139	0x3d0e34f1	0.034718458
140	0xbd4a943f	-0.049457785
141	0xbabedeb0	-0.0014562216
142	0x3c78d19c	0.0151866935
143	0x3db6caab	0.089253746
144	0x3d197ec5	0.037474412
145	0x3dfc4a71	0.12318886
146	0x3db40784	0.08790496
147	0x3cd7bcf0	0.02633521
148	0x3d186e09	0.037214313
149	0x3e440e0c	0.19145983
150	0x3d722a9d	0.05912267
151	0x3d87bb3c	0.06627509
152	0x3e39154d	0.18074532
153	0x3e09104b	0.13385122
154	0x3e149ed2	0.1451371
155	0x3e0ae36e	0.1356332
156	0x3d468160	0.048463225
157	0x3e8d8d26	0.2764675
158	0x3d66966b	0.056295794
159	0x3e5b52f1	0.21418358
160	0x3e16b598	0.1471771
161	0x3ca2d4b4	0.019876815
162	0x3e28d0fa	0.16485968
163	0x3dd2f15e	0.102999434
164	0x3d6ae8ae	0.057350807
165	0xbdcb0ede	-0.09914945
166	0xbae2cc4d	-0.0017303318
167	0x3e0826ec	0.13296098
168	0x3e0b6a54	0.1361478
169	0x3e474286	0.1945897
170	0x3e096fdd	0.13421579
171	0x3e0149ea	0.12625852
172	0x3c0dac34	0.008647013
173	0x3d9cf99b	0.07664796
174	0x3c8afe43	0.016966945
175	0x3d625524	0.055256978
176	0x3e329885	0.17440994
177	0x3ca13b0b	0.019681474
178	0x3dcd6fa2	0.10031058
179	0x3daccb1a	0.08437176
180	0x3e05496c	0.1301629
181	0x3e03fba5	0.12888964
182	0x3e43fc97	0.19139324
183	0x3ca251ef	0.01981446
184	0x3e6ad837	0.22934042
185	0x3caca53f	0.02107489
186	0xbd2f6999	-0.042825315
187	0x3d94c7ce	0.07264672
188	0x3c9ffd86	0.01953007
189	0x3dbd32c9	0.09238202
190	0xbd4cbe39	-0.049986098
191	0x3d5e7a53	0.054315876
192	0x3e508212	0.20362118
193	0x3e3e047f	0.18556403
194	0x3d83bef0	0.06432903
195	0xbdab3cee	-0.08361231
196	0x3e31bb49	0.173566
197	0x3e1bbf47	0.15209685
198	0xbd6c526a	-0.057695784
199	0x3dd02996	0.10164182
200	0x3dbee288	0.09320551
201	0xbdb4fd1a	-0.08837338
202	0x3e46cec9	0.1941482
203	0x3dec535a	0.115393355
204	0xbdb1ab11	-0.086752065
205	0x3e493a9d	0.19651265
206	0x3de67557	0.112528495
207	0xbd2f8347	-0.042849805
208	0x3dead44b	0.11466273
209	0x3e43114b	0.19049565
210	0x3e191355	0.14948781
211	0x3e36630d	0.17811222
212	0x3dcac5f8	0.09901041
213	0x3e720bab	0.23637263
214	0x3e2823ae	0.1641986
215	0x3e07be84	0.1325627
216	0x3d485fa4	0.048919335
217	0x3e4e8177	0.20166574
218	0x3d9e702a	0.07736237
219	0xbcc01ef8	-0.023452267
220	0x3da94c06	0.082664534
221	0x3dc340de	0.09533857
222	0x3d75411e	0.059876554
223	0x3e19c2bb	0.1501569
224	0xbd742b4d	-0.059611607
225	0x3de906d5	0.11378256
226	0x3e865330	0.26235342
227	0x3de13a3b	0.10997435
228	0xbb9cf0da	-0.004789454
229	0x3d0e863f	0.034795996
230	0x3daee292	0.085393086
231	0x3d2b8f26	0.041884564
232	0xbd307c65	-0.043087382
233	0x3e4eacf0	0.20183158
234	0x3e440caa	0.19145456
235	0xbda169b5	-0.0788149
236	0x3e297c5f	0.1655135
237	0xbbf73c6a	-0.0075450437
238	0xbb183704	-0.0023226151
239	0x3e315fa5	0.17321642
240	0x3e51f887	0.20504962
241	0x3db12215	0.08649079
242	0x3e653a97	0.22385632
243	0x3c624298	0.0138098225
244	0x3e4145a5	0.18874224
245	0x3d14ff10	0.03637606
246	0x3dc46339	0.09589238
247	0x3d93370b	0.07188233
248	0x3dba8a36	0.09108393
249	0x3e1d0b9a	0.15336457
250	0xbcd29ef2	-0.025710557
251	0x3e121eaa	0.1426951
252	0x3e5f0dac	0.21782559
253	0x3d08a750	0.033362687
254	0x3dcbe3ac	0.09955534
255	0x3e49c108	0.19702542

gru.bias_hh_l0 f4 [384]
0	0x3d7d39e2	0.06182278
1	0x3c781d29	0.015143671
2	0x3a987660	0.0011631958
3	0x3b0c0326	0.0021364181
4	0x3bac9055	0.005266229
5	0x3dc63416	0.09677903
6	0xbd0b905e	-0.034073226
7	0x3d0a148f	0.033711012
8	0x3d26bc1b	0.040706735
9	0xbdfd772b	-0.12376245
10	0xbd63cd94	-0.055615976
11	0x3dae07b1	0.08497561
12	0x3dd60da7	0.10451823
13	0x3da410f2	0.080110446
14	0xbda5d46c	-0.08097157
15	0x3cea646d	0.02861234
16	0x3d8e5e1a	0.06951542
17	0x3cd64915	0.026157895
18	0xbc699a51	-0.014257983
19	0x3da2df4f	0.07952749
20	0xbcdf284d	-0.027240897
21	0x3d71a9e6	0.05899992
22	0x3d48eff3	0.04905696
23	0xbd9a2331	-0.075262435
24	0xbbcbc347	-0.006218347
25	0x3e0560d5	0.1302522
26	0x3dc293fb	0.09500881
27	0x3d57c21a	0.052675344
28	0xbd3b9e94	-0.04580553
29	0x3db62fce	0.08895837
30	0xbceaaaae	-0.02864584
31	0x3dbf1399	0.0932991
32	0x3d6d586d	0.057945658
33	0xbd2d390d	-0.042290736
34	0x3d6378a3	0.05553497
35	0x3d958565	0.073008336
36	0xbc1713f0	-0.009221062
37	0xbbf4f7d2	-0.0074758315
38	0x3d48db3b	0.0490372
39	0xbda6aed7	-0.08138817
40	0xbda329da	-0.07966967
41	0x3cd01f67	0.025405599
42	0xbdcd0be0	-0.100120306
43	0xbda54fff	-0.08071899
44	0xbd9a42f1	-0.07532299
45	0x3db80178	0.08984655
46	0xbda25030	-0.07925451
47	0x3d7f2d96	0.062299334
48	0x3d6806f7	0.056647267
49	0x3d54b046	0.05192592
50	0x3bf386b1	0.007431828
51	0xbdd4fbb3	-0.1039957
52	0x3d45501f	0.048172113
53	0xbddab1e6	-0.10678463
54	0x3d79c34c	0.060977265
55	0xbe05be82	-0.13060954
56	0xbd9e9df1	-0.07744969
57	0x3c3a4ede	0.011371342
58	0x3d9e306b	0.07724079
59	0xbc95e382	-0.01829696
60	0x3c9e51b9	0.019326078
61	0xbd2a9cc0	-0.041653395
62	0xbb3d89d7	-0.002892127
63	0xbd424d24	-0.04743685
64	0xbd202660	-0.039099097
65	0x3da6d3cd	0.081458665
66	0xbdc921f2	-0.09820928
67	0xbd2786ff	-0.040900227
68	0x3cb76ddb	0.02239125
69	0x3dccb5e5	0.09995631
70	0xbd18fbe0	-0.03734958
71	0xbd29a2b8	-0.041414946
72	0xbdbd4abe	-0.092427716
73	0x3d3f22e7	0.046664145
74	0x3cffbadd	0.031217033
75	0x3ddc3420	0.107521296
76	0xbcd65925	-0.026165554
77	0xbd99f38f	-0.07517158
78	0x3d80cd2c	0.062891334
79	0x3dab8dec	0.08376679
80	0xbb42893d	-0.0029683851
81	0xbb99351c	-0.0046755206
82	0x3d3fb42e	0.046802692
83	0xbc0daa75	-0.008646597
84	0xbcda9b8e	-0.026685502
85	0x3dcf0822	0.10108973
86	0x3d6bcc8f	0.05756813
87	0x3d2324f1	0.039830152
88	0xbd986f9f	-0.07443165
89	0x3deb2d5c	0.11483261
90	0xbd73bba4	-0.05950512
91	0xbd923a98	-0.07140082
92	0xbd3846f3	-0.044989537
93	0xbc5f8d8c	-0.013644587
94	0x3da754c2	0.08170463
95	0x3e548fc5	0.20757969
96	0xbd9ca5aa	-0.076487854
97	0xbcdf1d6e	-0.027235713
98	0x3b892636	0.0041854633
99	0xbceb7186	-0.028740656
100	0x3daedb32	0.08537902
101	0x3d6c023a	0.05761931
102	0x3bd33b30	0.0064462647
103	0x3dce0c34	0.10060921
104	0xbe1a31f5	-0.1505812
105	0x3d8fd93b	0.07023855
106	0xbb1439f9	-0.0022617562
107	0x3d3c01cd	0.045900155
108	0x3d9408f7	0.072282724
109	0xbd332082	-0.043732174
110	0x3db66357	0.08905666
111	0xbd07a03e	-0.033111803
112	0xbd8f8097	-0.070069484
113	0xbd60201e	-0.05471813
114	0xbdb76d26	-0.08956365
115	0xbcd1feee	-0.025634255
116	0x3dba0821	0.09083582
117	0xbd06392a	-0.03276936
118	0x3d95c1c2	0.07312347
119	0x3bf89c0a	0.0075869607
120	0x3c219603	0.009862426
121	0xbc7805ea	-0.015138129
122	0x3d236c3c	0.039898142
123	0xbd1d2738	-0.03836748
124	0x3d4293c8	0.047504216
125	0x3d0a6735	0.033789832
126	0x3d066875	0.03281446
127	0x3da9b7b9	0.082869954
128	0x3e3f0f3d	0.18658157
129	0x3d853529	0.0650428
130	0x3ce63a75	0.028104046
131	0xbbd76804	-0.006573679
132	0x3d2c9c42	0.042141207
133	0xbc6784c4	-0.014130775
134	0x3d7b1841	0.061302427
135	0x3dda323e	0.10654114
136	0x3e3694cb	0.17830198
137	0x3e02d109	0.12775053
138	0x3e8c446d	0.27395955
139	0x3c8bef95	0.017082015
140	0xba40563f	-0.00073370704
141	0x3c8dbd10	0.017302066
142	0x3c8908f1	0.016727896
143	0x3d801175	0.0625333
144	0x3e061d31	0.13097073
145	0x3e27038c	0.16309947
146	0x3d4a143e	0.04933571
147	0x3d877465	0.06613997
148	0x3d68edd8	0.05686745
149	0x3e71de16	0.23619875
150	0x3d839b81	0.064261444
151	0x3d9dbece	0.07702409
152	0x3dc02c6d	0.093834735
153	0xbcf4d8ac	-0.029888473
154	0x3d8bb9e5	0.06822566
155	0x3ddb8b34	0.1071991
156	0x3d5e51f7	0.054277387
157	0x3e9579e1	0.2919455
158	0x3e1d6f4e	0.1537449
159	0x3e904ac4	0.28182042
160	0x3e15e953	0.14639787
161	0xbdb92cf2	-0.09041776
162	0x3dad528c	0.0846301
163	0x3e1efc98	0.15526044
164	0x3ddd281c	0.10798666
165	0xbcf03d57	-0.029326124
166	0x3e125dd9	0.14293613
167	0x3d8e6a41	0.0695386
168	0x3e72af68	0.23699725
169	0x3de7e526	0.113230035
170	0x3da53cc6	0.08068232
171	0x3df198f3	0.11796751
172	0x3e233163	0.15936808
173	0x3d4624e0	0.04837501
174	0x3e0a7cc7	0.13524161
175	0x3c98ae1b	0.018637707
176	0x3e7ac0d7	0.24487625
177	0x3d08ff1d	0.03344642
178	0x3e1448fd	0.14480968
179	0xbc93f7d4	-0.01806251
180	0x3db0c6f4	0.08631697
181	0x3e40a387	0.1881238
182	0x3e1e3a2e	0.15451881
183	0x3e104130	0.14087367
184	0x3e46dba3	0.19419722
185	0x3cfa2a5b	0.030537775
186	0x3ded539f	0.11588215
187	0x3d84d5ab	0.064860664
188	0x3c83505d	0.016029531
189	0x3e3cec38	0.18449485
190	0x3da153ec	0.07877335
191	0xbd99fcb5	-0.07518903
192	0x3e344d32	0.17607573
193	0x3d34d079	0.044144128
194	0x3e1347a8	0.14382803
195	0xbdf08a16	-0.11745088
196	0x3e037cc8	0.12840569
197	0x3e55a23f	0.20862673
198	0xbc2041c8	-0.0097813085
199	0x3e8644ea	0.26224452
200	0x3e4b82c8	0.19874108
201	0xbd4f0439	-0.050541136
202	0x3e84a11d	0.2590417
203	0xbd672f6d	-0.056441713
204	0xbdcca04e	-0.09991513
205	0x3e10476e	0.14089748
206	0x3e4cb04d	0.19989128
207	0x3d082788	0.033240825
208	0x3cf8ca79	0.030369984
209	0x3e53cb52	0.2068303
210	0x3da61ce4	0.08110979
211	0x3df5d8b8	0.120042264
212	0x3dccfa5a	0.10008688
213	0x3dfc0ff5	0.12307731
214	0x3dac3b1d	0.084097125
215	0x3dede89b	0.116166316
216	0x3c064643	0.008195463
217	0x3e221685	0.15828903
218	0x3d83ef02	0.064420715
219	0xbc421fe1	-0.011848421
220	0x3e5e5a78	0.21714199
221	0x3d84efda	0.064910606
222	0x3e272fcc	0.16326827
223	0x3e944bae	0.2896399
224	0xbadf839a	-0.001705277
225	0x3e39782c	0.18112248
226	0x3e600c77	0.21879755
227	0x3e2c313a	0.16815653
228	0x3dadcf00	0.08486748
229	0x3deaafd3	0.11459317
230	0x3da6c9ec	0.08143982
231	0x3df162e6	0.117864415
232	0x3ce408d1	0.027836235
233	0x3d52fcdc	0.051510677
234	0x3de22490	0.1104213
235	0xbd960bca	-0.07326467
236	0x3dc685db	0.096935
237	0xbc8de8d5	-0.017322937
238	0x3d088f57	0.033339825
239	0x3eaae164	0.33375084
240	0x3dbce8d9	0.092241
241	0x3d5a622c	0.05331628
242	0x3dd0ae38	0.101894796
243	0x3aa92192	0.0012903681
244	0x3e210e61	0.15728141
245	0x3e20d41d	0.15705915
246	0x3e835d98	0.25657344
247	0x3d41577f	0.047202583
248	0x3e5c5b9b	0.2151932
249	0x3df88cb5	0.12136213
250	0xbc8bee38	-0.017081365
251	0x3dca5398	0.098792255
252	0x3e4341be	0.19068047
253	0x3d0ebba8	0.03484693
254	0x3e30387a	0.17209044
255	0x3e39af48	0.1813327

mu.weight f4 [64, 128]
0	0xbde6a4cd	-0.11261902
1	0x3d6ce23d	0.057832945
2	0xbdcfd1bd	-0.10147426
3	0x3d9dafaa	0.07699521
4	0xbd64931b	-0.055804353
5	0xbd6e0c91	-0.058117453
6	0xbd117254	-0.035509422
7	0xbd83b715	-0.064314045
8	0x3dc0966b	0.0940369
9	0x3b34bb86	0.0027577593
10	0xbd007200	-0.03135872
11	0x3e257ed9	0.1616167
12	0x3cfaa705	0.03059722
13	0x3c2ebffd	0.010665891
14	0x3cc16a2f	0.023610203
15	0xbae51d87	-0.0017480113
16	0xbcece8f8	-0.028919682
17	0xbda5c318	-0.08093852
18	0xbc6d3683	-0.014478329
19	0x3d0fe2fc	0.03512858
20	0xbc9587b6	-0.018253189
21	0xbc86afab	-0.016441187
22	0xbd8b2fbf	-0.06796216
23	0x3cb86fe9	0.0225143
24	0xbe4bc46f	-0.19899152
25	0xbd472d95	-0.048627455
26	0x3db13f5f	0.08654665
27	0x3d6aa95c	0.05729042
28	0x3de299bd	0.110644795
29	0xbd1f5726	-0.03890147
30	0x3c32d5bc	0.010915216
31	0xbc95f587	-0.018305553
32	0xbd6953b9	-0.05696461
33	0xbbfa455b	-0.0076376623
34	0xbcd1a264	-0.02559013
35	0x3c76afe4	0.015056584
36	0x3caffd46	0.021483075
37	0xbccbcce9	-0.024877982
38	0x3d38951c	0.045064077
39	0xbc5bfb52	-0.013426619
40	0xbc7bcc9d	-0.015368608
41	0x3bedab0c	0.0072530564
42	0x3d65a540	0.056065798
43	0xbcc6361a	-0.02419572
44	0x3c39e4f5	0.0113460915
45	0xbd8f6c8d	-0.07003126
46	0x3e268616	0.16262087
47	0x3bfc89e0	0.0077068657
48	0xbc5f4dfc	-0.013629433
49	0x3d8a95c5	0.067668475
50	0xbdfc51b6	-0.123202726
51	0xbd600818	-0.05469522
52	0x3cd2a286	0.025712263
53	0xbdd2f4e4	-0.103006154
54	0x3df69e78	0.12041944
55	0xbcdad81a	-0.026714373
56	0x3d7d52a4	0.06184639
57	0xbd975f89	-0.07391269
58	0xbd58c707	-0.052924182
59	0x3d2f7e5e	0.042845123
60	0xbd03f185	-0.032212753
61	0x3bd965ab	0.006634434
62	0x3b416be2	0.0029513766
63	0x3d80542b	0.06266054
64	0xbda22009	-0.079162665
65	0xbd01af5f	-0.031661388
66	0x3dc85615	0.09782044
67	0xbd0a202f	-0.0337221
68	0xbdd31ab1	-0.10307825
69	0xbdb15a64	-0.08659819
70	0xbd8c5395	-0.068518795
71	0xbcee338b	-0.029077312
72	0xbd5d6479	-0.054050896
73	0xbc8f5173	-0.017494893
74	0x3dd5382f	0.10411107
75	0xbd2de01f	-0.042450067
76	0xbe0443ea	-0.12916532
77	0xbdef88aa	-0.116959885
78	0xbdab294c	-0.08357486
79	0xbd3da323	-0.046298157
80	0xbcfb9af0	-0.030713528
81	0x3dbba6c7	0.0916267
82	0xbb975714	-0.004618535
83	0x3d36db9f	0.04464304
84	0xbd79e7bd	-0.06101202
85	0x3c05ebc0	0.008173883
86	0x3dacf232	0.084446326
87	0xbd323707	-0.04350951
88	0x3d712b98	0.058879465
89	0xbe0567fe	-0.13027951
90	0x3c8d644e	0.017259743
91	0x3cf64b49	0.030065196
92	0xbaede688	-0.0018150369
93	0x3bddacb4	0.0067649726
94	0xbd92d6d6	-0.07169883
95	0xbb400d0b	-0.002930465
96	0x3bf39593	0.007433602
97	0x3b83e29f	0.004024818
98	0x3ca06577	0.019579632
99	0x3c40215b	0.011726703
100	0xbd615e52	-0.05502159
101	0x3dd209eb	0.10255798
102	0x3d15e41e	0.036594503
103	0xbd789fab	-0.060699146
104	0xbd618dd6	-0.055066906
105	0x3d2797b8	0.040916175
106	0x3c004fe1	0.007831545
107	0xbdb895db	-0.09012958
108	0x3d7e97c4	0.062156454
109	0x3d6dabc0	0.05802512
110	0x3d4d13ce	0.050067715
111	0xbe29dad4	-0.16587383
112	0xbda6eaa7	-0.08150225
113	0xbcd78ab0	-0.026311249
114	0x3d52dea9	0.051481877
115	0xbd3090fa	-0.04310701
116	0xbb678fb4	-0.0035333456
117	0x3dc03fd8	0.09387177
118	0x3e10fdbd	0.14159293
119	0xbc740096	-0.014892718
120	0x3d853dc3	0.06505921
121	0xbd262be1	-0.04056919
122	0xbd4599b5	-0.04824229
123	0x3ae07777	0.0017125447
124	0xbd9ab1b5	-0.07553426
125	0xbd2d11f8	-0.042253464
126	0xbd417d79	-0.0472388
127	0xbb6242fc	-0.003452479
128	0x3e2319f1	0.15927865
129	0xbd703989	-0.05864862
130	0xbd4380d1	-0.04773027
131	0x3d889b14	0.06670204
132	0x3d9a1a73	0.07524576
133	0x3d8a4350	0.0675112
134	0xbc656704	-0.014001612
135	0x3df6dd58	0.12053937
136	0x3c897ee9	0.016784148
137	0xbd80a03d	-0.06280563
138	0x3d875814	0.066085964
139	0x3cb7953b	0.022410026
140	0xba15245a	-0.0005689316
141	0xbdb98d1f	-0.0906012
142	0x3c487581	0.012235046
143	0x3d6c5a6c	0.05770342
144	0x3d0bed4d	0.034161855
145	0x3e6cd590	0.23128343
146	0xbc59b1cd	-0.01328702
147	0xbd93a942	-0.07210018
148	0x3d3cb6e3	0.046072852
149	0x3d93f2fc	0.0722408
150	0x3d8b269b	0.06794473
151	0xbc6d3a09	-0.014479169
152	0x3dc2defe	0.09515189
153	0xbd07bbdd	-0.033138145
154	0xbda85c89	-0.08220775
155	0xbd106f05	-0.035262126
156	0xbd840921	-0.06447054
157	0xbd89916b	-0.067171894
158	0x3c2b5846	0.010458058
159	0xbd6f414b	-0.058411878
160	0xbdc35eab	-0.09539541
161	0xbc82dc98	-0.015974328
162	0xbcae6e87	-0.021292938
163	0x3d33fdb8	0.043943137
164	0x3de3999e	0.111132845
165	0xbe037937	-0.12839209
166	0x3c1491fc	0.0090680085
167	0x3dba0745	0.09083418
168	0x3e1a4aa5	0.15067537
169	0x3b0ef5c0	0.002181396
170	0xbb1611b4	-0.0022898735
171	0xbcbf888c	-0.02338054
172	0x3e0774aa	0.13228098
173	0xbd3fa62f	-0.046789344
174	0xbe329bb4	-0.17442209
175	0xbce7c163	-0.028290456
176	0x3de5d2ac	0.11221823
177	0xbdad1c1a	-0.084526256
178	0x3cfabeae	0.030608501
179	0x3d79e626	0.061010502
180	0x3d37beb6	0.04485961
181	0xbd8f48b6	-0.069962904
182	0x3e61c21f	0.22046708
183	0xbc812711	-0.015765699
184	0xb9f647fc	-0.0004697441
185	0xbc09b567	-0.008405066
186	0x3d544e3d	0.051832426
187	0x3d6034aa	0.054737724
188	0xbd8ef929	-0.06981117
189	0x3d97f7bf	0.07420301
190	0xbd2c7bbf	-0.0421102
191	0x3d73a415	0.059482653
192	0x3cddb395	0.02706317
193	0xbda825aa	-0.08210309
194	0x3d8be31e	0.068304285
195	0xbd2dbaa5	-0.042414326
196	0xbdb1d9b4	-0.08684102
197	0x3db4e732	0.088331595
198	0xbd70285b	-0.058632236
199	0x3bee05a8	0.007263858
200	0x3d75d8e0	0.06002128
201	0x3d43c43c	0.047794566
202	0xbca4961a	-0.020091105
203	0x3bb49520	0.005510941
204	0x3c246fa8	0.010036387
205	0xbdb7b80f	-0.08970653
206	0x3d527724	0.051383153
207	0xbcbd29e3	-0.023091262
208	0xbd81b099	-0.063325115
209	0xbd981bc0	-0.07427168
210	0xbd6db29d	-0.058031667
211	0xbd259edb	-0.0404347
212	0xbd527b7d	-0.0513873
213	0x3b489a8f	0.0030609702
214	0xbd0cc14c	-0.03436403
215	0x3cd2e98b	0.025746128
216	0xbc7fe953	-0.015619594
217	0x3e34e1a8	0.17664206
218	0xbcaf52d9	-0.02140181
219	0xbdcbe77d	-0.09956262
220	0xbd035a60	-0.03206861
221	0xbc3a1fc2	-0.011360111
222	0x3baacd45	0.0052124583
223	0xbc9a3d37	-0.018828018
224	0x3daafa0a	0.083484724
225	0x3de12433	0.109932326
226	0xbd54da36	-0.051965915
227	0x3db5bdcd	0.08874092
228	0xbd9c889b	-0.07643243
229	0xbcec030c	-0.028810047
230	0xbda87951	-0.08226264
231	0x3c76fe00	0.015075207
232	0x3d3da859	0.046303127
233	0xbb5fb030	-0.0034132116
234	0x3d736667	0.05942383
235	0xbd874f3c	-0.0660691
236	0x3c9e10a1	0.019295039
237	0xbdbad37f	-0.09122371
238	0x3dd943f3	0.106086634
239	0xbdcf19a7	-0.10112315
240	0xbdfe8d41	-0.12429286
241	0xbdd2c0e6	-0.10290699
242	0x3cf14e45	0.029456267
243	0xbc7bf406	-0.015378004
244	0x3c4befe5	0.012447332
245	0x3d34a2bc	0.044100508
246	0xbd2d1bc6	-0.042262815
247	0x3cadbd0e	0.021208312
248	0xbe03224e	-0.12806055
249	0xbc6cf387	-0.014462358
250	0x3d406499	0.046970937
251	0x3ce4fee5	0.027953574
252	0xbce469a5	-0.027882406
253	0xbd9d8f7a	-0.076933816
254	0x3d53b7a6	0.051688813
255	0xbd2a3d74	-0.041562513

mu.bias f4 [64]
0	0xbcd5fa6b	-0.026120385
1	0xbd6c74c0	-0.05772853
2	0x3d3ab18e	0.045579486
3	0xbdb32c7a	-0.087487176
4	0x3d9982db	0.07495662
5	0x3d2a1a5d	0.04152905
6	0x3c88813e	0.01666319
7	0x3b828ba6	0.0039839325
8	0x3d24656f	0.040135797
9	0x3dcfa082	0.10138036
10	0x3d4183af	0.047244724
11	0xbc83cd78	-0.016089186
12	0xbdce3b27	-0.10069876
13	0xbd2d092e	-0.042245083
14	0xbd630859	-0.055427883
15	0xbb5fbac9	-0.0034138432
16	0x3d830c1b	0.06398793
17	0xbd4e20fa	-0.050324418
18	0xbbcdeb0f	-0.0062841247
19	0x3d84d12b	0.06485208
20	0x3c5edf24	0.013603006
21	0xbd1a54bc	-0.037678465
22	0xbd0db2d3	-0.03459437
23	0xbd7ed8ee	-0.0622186
24	0x3d08b06b	0.03337137
25	0xbd4d5be8	-0.050136477
26	0x3decba08	0.1155892
27	0xbb9ec1a4	-0.004844861
28	0xbc18bb4a	-0.009321997
29	0x3be1f944	0.00689617
30	0xbc145e66	-0.0090557095
31	0xbc9ed378	-0.019387946
32	0xbd0c6a38	-0.034280986
33	0xbd826a28	-0.06367904
34	0xbd17bcd1	-0.037045304
35	0x3c9d2e41	0.019187095
36	0x3dcdc265	0.100468434
37	0xbcb5daaf	-0.022199003
38	0xbd4afee9	-0.049559508
39	0x3ce3dec3	0.027816182
40	0xbdc5cb85	-0.09657959
41	0xbdbb86ca	-0.09156568
42	0xbdec9b5d	-0.11553071
43	0xb91fe8de	-0.00015250171
44	0xbc31816d	-0.01083408
45	0xbd28483b	-0.04108451
46	0x3da1eae6	0.079061314
47	0xbd7eb88e	-0.062187724
48	0x3d162f6b	0.036666315
49	0xbd1e0211	-0.03857619
50	0x3ca647ff	0.020298002
51	0xbb64417c	-0.003482907
52	0xbcd5855a	-0.026064564
53	0x3d81f5b0	0.06345689
54	0x3cc542b8	0.024079666
55	0xbcccab93	-0.024984157
56	0x3d216d9b	0.03941117
57	0xbdaaca0a	-0.08339317
58	0x3bc4cd6a	0.0060059326
59	0xbddf0075	-0.10888759
60	0xbd167468	-0.036732107
61	0xbd2dbe20	-0.042417645
62	0xbd58eda1	-0.052960996
63	0xbdabd3d5	-0.08390013

logvar.weight f4 [64, 128]
0	0xbd8c25b1	-0.068431266
1	0xbd8703cb	-0.0659252
2	0xbd9ac95d	-0.07557938
3	0x3d3abb62	0.04558886
4	0x3c086ba2	0.008326443
5	0xbcbb5726	-0.022868704
6	0x3d8c6a9e	0.06856273
7	0xbbaf30d7	-0.0053463983
8	0xbd165fba	-0.036712386
9	0xbd27e1ae	-0.04098671
10	0x3da981ef	0.08276736
11	0xbc9aa5df	-0.018877922
12	0xbd852ffd	-0.06503294
13	0x3ca8a05f	0.020584283
14	0x3d9ae4a3	0.0756314
15	0x3d015636	0.031576358
16	0x3be55b82	0.006999434
17	0x3d66211e	0.056183927
18	0xbd8b2518	-0.067941844
19	0xbdb39a9b	-0.08769723
20	0xbc9c68ff	-0.019093035
21	0x3c1a81d4	0.0094303675
22	0xbc344a28	-0.011004008
23	0x3da0d52d	0.0785316
24	0xbdb5bf0e	-0.088743314
25	0xbd6ac016	-0.057312094
26	0xbc5eeb9c	-0.013605978
27	0x3d7ec15f	0.06219613
28	0x3d4206a4	0.047369614
29	0xbe062b20	-0.13102388
30	0xbbb6c189	-0.0055772704
31	0x3d51a7ba	0.051185347
32	0x3d3709d7	0.04468712
33	0x3dad5174	0.084628016
34	0xbd031812	-0.032005377
35	0xbc88ee62	-0.016715232
36	0x3db25995	0.08708493
37	0xbc8da972	-0.017292712
38	0x3be0076e	0.006836823
39	0x3d0f1c15	0.03493889
40	0x3daccf19	0.08437938
41	0xbd156faf	-0.036483463
42	0x3c5ab484	0.013348702
43	0x3d854213	0.06506743
44	0xbcc5f219	-0.024163293
45	0x3c676723	0.014123711
46	0x3c9d3a3b	0.019192806
47	0xbd1ad398	-0.037799448
48	0xbd0e3019	-0.03471384
49	0xbd55389f	-0.05205595
50	0xbad705a2	-0.0016404877
51	0x3d0d73d1	0.03453428
52	0x3c505c5f	0.0127173355
53	0x3cfbfe55	0.030760923
54	0xbb49865f	-0.0030750257
55	0xbd4f2d79	-0.050580475
56	0x3a635a9e	0.0008672866
57	0xbd6c5555	-0.057698566
58	0xbd4b0fe4	-0.0495757
59	0x3c9eae52	0.019370232
60	0xbd3a25d8	-0.045446247
61	0xbd22a329	-0.039706383
62	0xbcd4b3c6	-0.025964629
63	0xbc846eee	-0.016166177
64	0x3c9fe0d1	0.01951638
65	0x3c791f96	0.015205285
66	0xbd8a3fd6	-0.06750457
67	0x3cf48e48	0.029853001
68	0x3d3ef5a9	0.046621
69	0x3c83fcf5	0.01611183
70	0xbc87c533	-0.016573524
71	0xbd8b2337	-0.06793826
72	0xbd7d4f84	-0.06184341
73	0xbd479db9	-0.0487344
74	0xbd19e58f	-0.03757244
75	0xbda9bcae	-0.08287941
76	0xbd0550ac	-0.032547638
77	0x3d37f729	0.044913445
78	0x3d5f9cfa	0.054593064
79	0xbd20b585	-0.03923561
80	0x3d00ed52	0.031476326
81	0x3d7f7780	0.062369823
82	0xbd80304e	-0.062592134
83	0xbc7f7c7c	-0.015593644
84	0xbd590444	-0.052982584
85	0x3c9e2b29	0.01930769
86	0x3c5cf9a9	0.013487258
87	0xbd564125	-0.05230822
88	0x3d8c58bc	0.06852862
89	0xbc841ee5	-0.016128013
90	0x3c898f48	0.016791955
91	0x3d03f36e	0.032214575
92	0x3ce6fca9	0.02819665
93	0x3d29e5a6	0.041478775
94	0xbd520f27	-0.05128398
95	0xbd9086b5	-0.07056943
96	0x3d5795b1	0.05263299
97	0xbd9622a9	-0.0733083
98	0x3c32af27	0.010906017
99	0x3d74d1ef	0.05977052
100	0x3ca43cea	0.020048577
101	0xbd8dd0c5	-0.06924585
102	0xbc6ef7a5	-0.01458541
103	0xbc43698a	-0.011927018
104	0x3d5dee0d	0.0541821
105	0xbd62cc2c	-0.055370495
106	0xbdaa7cc7	-0.08324581
107	0x3aeb9a92	0.0017975143
108	0xbbc1408a	-0.0058975862
109	0x3cf0b86f	0.02938482
110	0xbcd2c632	-0.025729273
111	0xbc36870e	-0.011140598
112	0xbd284516	-0.04108151
113	0xbddbdf89	-0.10735995
114	0xbcc6d61e	-0.02427202
115	0xbb896be6	-0.0041937707
116	0xbd482bad	-0.048869777
117	0xba1c3cd4	-0.0005959992
118	0x3d4e44e0	0.050358653
119	0x3c489fd3	0.012245136
120	0xbcf33b16	-0.02969126
121	0xbd05f80a	-0.03270725
122	0x3a4de2eb	0.0007853943
123	0x3d64f010	0.055893004
124	0xbb22f0dd	-0.0024862804
125	0xbcbe6bf9	-0.023244845
126	0x3cdfc2f6	0.027314644
127	0x3d4c6bec	0.04990761
128	0x3bac0234	0.005249286
129	0xbd24c862	-0.040230162
130	0xbcd51b40	-0.02601397
131	0x3c2c9640	0.010533869
132	0x3d188ba6	0.037242554
133	0x3d1d3f62	0.038390525
134	0xbd1b8231	-0.037965957
135	0xbb94e036	-0.0045433296
136	0xbc1f919d	-0.009739307
137	0x3d44877c	0.04798077
138	0xbd424c25	-0.0474359
139	0x3d286a0b	0.041116755
140	0xbd168f7b	-0.036757927
141	0xbcb03529	-0.021509724
142	0x3dbab8db	0.0911729
143	0x3c19a682	0.009378077
144	0x3da3d1de	0.07999013
145	0x3dea7a67	0.11449128
146	0xbdd095ba	-0.10184808
147	0xbd195075	-0.037430245
148	0xbc7c658d	-0.015405071
149	0xbcc39fa2	-0.02387983
150	0x3d08188b	0.03322653
151	0xbc817080	-0.015800714
152	0xbd36ddb9	-0.044645045
153	0xbdc98dc2	-0.09841491
154	0xbd18e1f7	-0.037324872
155	0x3d897777	0.06712239
156	0x3be9aa0b	0.0071308664
157	0xbc2649ea	-0.010149458
158	0x3cd5c5fc	0.026095383
159	0xbd58befd	-0.052916516
160	0x3d846756	0.06465022
161	0x3dcb28af	0.09919869
162	0x3d0704bc	0.0329635
163	0x3d466329	0.04843441
164	0x3d93239e	0.07184528
165	0xbd96085b	-0.073258124
166	0x3da9dd53	0.08294167
167	0xbbcfce9d	-0.006341769
168	0x3ca3b07f	0.01998162
169	0x3d8d6cbc	0.06905505
170	0x3cebbcf3	0.028776621
171	0x3db958ca	0.09050138
172	0x3dc0f001	0.09420777
173	0xbc436205	-0.011925225
174	0xbc461204	-0.012089256
175	0xb9e746e6	-0.00044112577
176	0xbc75e917	-0.015009186
177	0xbca8c860	-0.020603359
178	0x3bb088c3	0.005387397
179	0xbd440eca	-0.047865666
180	0xbd731346	-0.059344552
181	0x3d7b9f22	0.061431058
182	0xbd66140f	-0.056171473
183	0x3da9c0c6	0.08288722
184	0x3dd77bfa	0.105216935
185	0xbd9fdeff	-0.07806205
186	0xbd719a8f	-0.05898529
187	0x3b2b3cb3	0.002612871
188	0xbcc21fa8	-0.023696736
189	0xbde84e68	-0.1134308
190	0x3d178b5f	0.03699815
191	0x3d74168a	0.059591807
192	0x3c04de73	0.008109677
193	0x3d9a7be3	0.07543161
194	0xbbd693dc	-0.006548388
195	0xbb556b04	-0.0032565007
196	0xbd58941f	-0.052875634
197	0x3d8219c7	0.06352573
198	0x3cf00d50	0.029303223
199	0x3cc8bc1a	0.024503756
200	0x3d2f185b	0.042747837
201	0xba0638c3	-0.00051201525
202	0x3d09acfc	0.033612236
203	0xbcf2f021	-0.029655518
204	0x3ac2556a	0.0014826481
205	0xbbc82b20	-0.0061086565
206	0x3d74d718	0.059775442
207	0x3d07d4fd	0.033162106
208	0x3db36b6f	0.08760726
209	0xbd3d0c5e	-0.046154372
210	0x3d24a707	0.040198352
211	0xbb17e9ba	-0.0023180083
212	0xbc9a89a7	-0.018864466
213	0xbc903d37	-0.017607315
214	0x3c000ad5	0.007815083
215	0xbc468ae1	-0.012118072
216	0x3d5ba18f	0.05362087
217	0xbc4b1eae	-0.012397451
218	0x3d8535be	0.06504391
219	0x362efc00	2.6074704e-06
220	0xbb3682c2	-0.0027848934
221	0x3ca66d41	0.020315768
222	0xbd0419b3	-0.03225107
223	0xbca05c99	-0.019575404
224	0x3d4f5d27	0.050625946
225	0x3d564a07	0.05231669
226	0x3c28cbeb	0.010302524
227	0x3d812dc0	0.06307554
228	0xbd834760	-0.06410098
229	0x3c88da1b	0.016705563
230	0x3c460113	0.012085217
231	0xbc07bfb9	-0.008285456
232	0xbd5cac7c	-0.05387543
233	0xbd92a895	-0.07161061
234	0xbcf3b6b9	-0.029750215
235	0xbd91824f	-0.071049325
236	0xbd40cf83	-0.0470729
237	0x3d3f1d7a	0.04665897
238	0xbd412f30	-0.047164142
239	0xbbf3c3c2	-0.0074391076
240	0xbd3191bb	-0.04335187
241	0xbd9b89ce	-0.075946435
242	0x3ca49259	0.020089315
243	0xbd669675	-0.05629583
244	0xbd58da54	-0.05294259
245	0xbbc09480	-0.0058770776
246	0x3cae5747	0.021281851
247	0x3cc92f1e	0.0245586
248	0x3baa8dcb	0.0052048913
249	0x3d3187cd	0.0433424
250	0x3d8e78d2	0.069566384
251	0x3c6e5a3f	0.0145478835
252	0xbd7a30d7	-0.061081734
253	0xbccb99f1	-0.024853678
254	0x3d09bc5b	0.033626895
255	0xbd91a67b	-0.07111832

logvar.bias f4 [64]
0	0xbdda55af	-0.10660874
1	0xbdc5cdf0	-0.0965842
2	0xbe152318	-0.14564168
3	0xbbff7bc7	-0.007796738
4	0xbda6827c	-0.08130357
5	0xbdd1e579	-0.102488466
6	0x3cebbdc7	0.028777016
7	0xbd143e31	-0.036192123
8	0xbdbffe1b	-0.09374639
9	0xbddf2bb9	-0.10897011
10	0xbe1fef5c	-0.15618652
11	0xbdff7e97	-0.12475317
12	0xbd5efc34	-0.05443974
13	0xbd64d8ad	-0.0558707
14	0xbb52876c	-0.0032124175
15	0xbd36ff9a	-0.044677354
16	0xbd1d5213	-0.03840835
17	0xbc3fa8bf	-0.011697947
18	0xbde950fc	-0.113924
19	0xbdc8c8a5	-0.09803895
20	0xbda32f58	-0.079680145
21	0xbd015425	-0.031574387
22	0xbddef3a5	-0.10886315
23	0xbe1ea967	-0.1549431
24	0xbd62bb1d	-0.055354226
25	0xbc400009	-0.011718758
26	0xbdbf69dd	-0.09346364
27	0x3bb2186b	0.0054350398
28	0xbdd4eef3	-0.103971384
29	0xbe059176	-0.1304377
30	0xbe1a3f98	-0.15063322
31	0xbdca1f40	-0.09869242
32	0xbd14a37c	-0.036288723
33	0xbd57debc	-0.05270265
34	0xbd7bf670	-0.061514318
35	0xbe220efa	-0.15826026
36	0xbc8c105a	-0.01709764
37	0xbe0efcae	-0.13963577
38	0xbddf8738	-0.10914463
39	0xbe11135e	-0.14167544
40	0xbd7db0e2	-0.061936267
41	0xbd9cbf59	-0.07653684
42	0xbe2829a2	-0.16422132
43	0xbbfadd6b	-0.0076557896
44	0xbe0787af	-0.13235353
45	0xbde9b0a5	-0.114106454
46	0xbd958b4e	-0.07301961
47	0xbdbaa8d2	-0.09114231
48	0xbd979704	-0.07401851
49	0xbc83d396	-0.016092103
50	0xbdf3ba86	-0.11900811
51	0xbd868c3d	-0.06569717
52	0xbc441ae3	-0.011969301
53	0xbd28d96f	-0.041222986
54	0xbe0af9ee	-0.13571903
55	0xbe25e3e1	-0.1620021
56	0xbdfc5de0	-0.12322593
57	0xbd41d3c0	-0.04732108
58	0xbde76b1c	-0.11299726
59	0xbcbd96ee	-0.023143258
60	0xbdfa570e	-0.122236356
61	0xbd6549c5	-0.055978555
62	0xbd4beb60	-0.049785018
63	0xbddd94cc	-0.108193964
